…
\"relu\"),\n+        layers.MaxPooling2D(pool_size=(2, 2)),\n+        layers.Conv2D(64, kernel_size=(3, 3), activation=\"relu\"),\n+        layers.MaxPooling2D(pool_size=(2, 2)),\n+        layers.Flatten(),\n+        layers.Dropout(0.5),\n+        layers.Dense(num_classes, activation=\"softmax\"),\n+    ]\n+)\n+model.summary()\n+```\n+```\n+Model: \"sequential\"\n+_________________________________________________________________\n+Layer (type)                 Output Shape              Param #   \n+=================================================================\n+conv2d (Conv2D)              (None, 26, 26, 32)        320       \n+_________________________________________________________________\n+max_pooling2d (MaxPooling2D) (None, 13, 13, 32)        0         \n+_________________________________________________________________\n+conv2d_1 (Conv2D)            (None, 11, 11, 64)        18496     \n+_________________________________________________________________\n+max_pooling2d_1 (MaxPooling2 (None, 5, 5, 64)          0         \n+_________________________________________________________________\n+flatten (Flatten)            (None, 1600)              0         \n+_________________________________________________________________\n+dropout (Dropout)            (None, 1600)              0         \n+_________________________________________________________________\n+dense (Dense)                (None, 10)                16010     \n+=================================================================\n+Total params: 34,826\n+Trainable params: 34,826\n+Non-trainable params: 0\n+_________________________________________________________________\n+```\n+卷积神经网络从一个输入层和一个卷积层开始。Keras Conv2D 层接受卷积核的数量和卷积核的大小作为参数。下面说明了正在发生的事情。在这里，我们用 32 个卷积核对图像进行卷积，最终得到 32 个特征图，每个特征图的大小都与图像的大小相同。\n+<div class=\"flex justify-center\">\n+    <img sr
…
