…
"output = classy_model(input)\\n\",\n+    \"assert output.shape == (10, 1000)\"\n+   ]\n+  },\n+  {\n+   \"cell_type\": \"markdown\",\n+   \"metadata\": {},\n+   \"source\": [\n+    \"In fact, as soon as a model becomes a Classy Model, it gains all its abilities as well, including the ability to attach heads! Let us inspect the original model to see the modules it comprises.\"\n+   ]\n+  },\n+  {\n+   \"cell_type\": \"code\",\n+   \"execution_count\": 10,\n+   \"metadata\": {},\n+   \"outputs\": [\n+    {\n+     \"data\": {\n+      \"text/plain\": [\n+       \"ResNet(\\n\",\n+       \"  (conv1): Conv2d(3, 64, kernel_size=(7, 7), stride=(2, 2), padding=(3, 3), bias=False)\\n\",\n+       \"  (bn1): BatchNorm2d(64, eps=1e-05, momentum=0.1, affine=True, track_running_stats=True)\\n\",\n+       \"  (relu): ReLU(inplace=True)\\n\",\n+       \"  (maxpool): MaxPool2d(kernel_size=3, stride=2, padding=1, dilation=1, ceil_mode=False)\\n\",\n+       \"  (layer1): Sequential(\\n\",\n+       \"    (0): BasicBlock(\\n\",\n+       \"      (conv1): Conv2d(64, 64, kernel_size=(3, 3), stride=(1, 1), padding=(1, 1), bias=False)\\n\",\n+       \"      (bn1): BatchNorm2d(64, eps=1e-05, momentum=0.1, affine=True, track_running_stats=True)\\n\",\n+       \"      (relu): ReLU(inplace=True)\\n\",\n+       \"      (conv2): Conv2d(64, 64, kernel_size=(3, 3), stride=(1, 1), padding=(1, 1), bias=False)\\n\",\n+       \"      (bn2): BatchNorm2d(64, eps=1e-05, momentum=0.1, affine=True, track_running_stats=True)\\n\",\n+       \"    )\\n\",\n+       \"    (1): BasicBlock(\\n\",\n+       \"      (conv1): Conv2d(64, 64, kernel_size=(3, 3), stride=(1, 1), padding=(1, 1), bias=False)\\n\",\n+       \"      (bn1): BatchNorm2d(64, eps=1e-05, momentum=0.1, affine=True, track_running_stats=True)\\n\",\n+       \"      (relu): ReLU(inplace=True)\\n\",\n+       \"      (conv2): Conv2d(64, 64, kernel_size=(3, 3), stride=(1, 1), padding=(1, 1), bias=False)\\n\",\n+       \"      (bn2): BatchNorm2d(64, eps=1e-05, momentum=0.1, affine=True, track_running_stats=True)\\n\",\n+       \"    )\\n\",\n+       \"  )\\n\",\n+       \"  (layer2): Sequential(\\n\",\n+       \"    (0): BasicBlock(\\n\",\n+       \"      (conv1): Conv2d(64, 128, kernel_size=(3, 3), stride=(2, 2), padding=(1, 1), bias=False)\\n\",\n+       \"      (bn1): BatchNorm2d(128, eps=1e-05, momentum=0.1, affine=True, track_running_stats=True)\\n\",\n+       \"      (relu): ReLU(inplace=True)\\n\",\n+       \"      (conv2): Conv2d(128, 128, kernel_size=(3, 3), stride=(1, 1), padding=(1, 1), bias=False)\\n\",\n+       \"      (bn2): BatchNorm2d(128, eps=1e-05, momentum=0.1, affine=True, track_running_stats=True)\\n\",\n+       \"      (downsample): Sequential(\\n\",\n+       \"        (0): Conv2d(64, 128, kernel_size=(1, 1), stride=(2, 2), bias=False)\\n\",\n+       \"        (1): BatchNorm2d(128, eps=1e-05, momentum=0.1, affine=True, track_running_stats=True)\\n\",\n+       \"      )\\n\",\n+       \"    )\\n\",\n+       \"    (1): BasicBlock(\\n\",\n+       \"      (conv1): Conv2d(128, 128, kernel_size=(3, 3), stride=(1, 1), padding=(1, 1), bias=False)\\n\",\n+       \"      (bn1): BatchNorm2d(128, eps=1e-05, momentum=0.1, affine=True, track_running_stats=True)\\n\",\n+       \"      (relu): ReLU(inplace=True)\\n\",\n+       \"      (conv2): Conv2d(128, 128, kernel_size=(3, 3), stride=(1, 1), padding=(1, 1), bias=False)\\n\",\n+       \"      (bn2): BatchNorm2d(128, eps=1e-05, momentum=0.1, affine=True, track_running_stats=True)\\n\",\n+       \"    )\\n\",\n+       \"  )\\n\",\n+       \"  (layer3): Sequential(\\n\",\n+       \"    (0): BasicBlock(\\n\",\n+       \"      (conv1): Conv2d(128, 256, kernel_size=(3, 3), stride=(2, 2), padding=(1, 1), bias=False)\\n\",\n+       \"      (bn1): BatchNorm2d(256, eps=1e-05, momentum=0.1, affine=True, track_running_stats=True)\\n\",\n+       \"      (relu): ReLU(inplace=True)\\n\",\n+       \"      (conv2): Conv2d(256, 256, kernel_size=(3, 3), stride=(1, 1), padding=(1, 1), bias=False)\\n\",\n+       \"      (bn2): BatchNorm2d(256, eps=1e-05, momentum=0.1, affine=True, track_running_stats=True)\\n\",\n+       \"      (downsample): Sequential(\\n\",\n+       \"        (0): Conv2d(128, 256, kernel_size=(1, 1), stride=(2, 2), bias=False)\\n\",\n+       \"        (1): BatchNorm2d(256, eps=1e-05, momentum=0.1, affine=True, track_running_stats=True)\\n\",\n+       \"      )\\n\",\n+       \"    )\\n\",\n+       \"    (1): BasicBlock(\\n\",\n+       \"      (conv1): Conv2d(256, 256, kernel_size=(3, 3), stride=(1, 1), padding=(1, 1), bias=False)\\n\",\n+       \"      (bn1): BatchNorm2d(256, eps=1e-05, momentum=0.1, affine=True, track_running_stats=True)\\n\",\n+       \"      (relu): ReLU(inplace=True)\\n\",\n+       \"      (conv2): Conv2d(256, 256, kernel_size=(3, 3), stride=(1, 1), padding=(1, 1), bias=False)\\n\",\n+       \"      (bn2): BatchNorm2d(256, eps=1e-05, momentum=0.1, affine=True, track_running_stats=True)\\n\",\n+       \"    )\\n\",\n+       \"  )\\n\",\n+       \"  (layer4): Sequential(\\n\",\n+       \"    (0): BasicBlock(\\n\",\n+       \"      (conv1): Conv2d(256, 512, kernel_size=(3, 3), stride=(2, 2), padding=(1, 1), bias=False)\\n\",\n+       \"      (bn1): BatchNorm2d(512, eps=1e-05, momentum=0.1, affine=True, track_running_stats=True)\\n\",\n+       \"      (relu): ReLU(inplace=True)\\n\",\n+       \"      (conv2): Conv2d(512, 512, kernel_size=(3, 3), stride=(1, 1), padding=(1, 1), bias=False)\\n\",\n+       \"      (bn2): BatchNorm2d(512, eps=1e-05, momentum=0.1, affine=True, track_running_stats=True)\\n\",\n+       \"      (downsample): Sequential(\\n\",\n+       \"        (0): Conv2d(256, 512, kernel_size=(1, 1), stride=(2, 2), bias=False)\\n\",\n+       \"        (1): BatchNorm2d(512, eps=1e-05, momentum=0.1, affine=True, track_running_stats=True)\\n\",\n+       \"      )\\n\",\n+       \"    )\\n\",\n+       \"    (1): BasicBlock(\\n\",\n+       \"      (conv1): Conv2d(512, 512, kernel_size=(3, 3), stride=(1, 1), padding=(1, 1), bias=False)\\n\",\n+       \"      (bn1): BatchNorm2d(512, eps=1e-05, momentum=0.1, affine=True, track_running_stats=True)\\n\",\n+       \"      (relu): ReLU(inplace=True)\\n\",\n+       \"      (conv2): Conv2d(512, 512, kernel_size=(3, 3), stride=(1, 1), padding=(1, 1), bias=False)\\n\",\n+       \"      (bn2): BatchNorm2d(512, eps=1e-05, momentum=0.1, affine=True, track_running_stats=True)\\n\",\n+       \"    )\\n\",\n+       \"  )\\n\",\n+       \"  (avgpool): AdaptiveAvgPool2d(output_size=(1, 1))\\n\",\n+       \"  (fc): Linear(in_features=512, out_features=1000, bias=True)\\n\",\n+       \")\"\n+      ]\n+     },\n+     \"execution_count\": 10,\n+     \"metadata\": {},\n+     \"output_type\": \"execute_result\"\n+    }\n+   ],\n+   \"source\": [\n+    \"model\"\n+   ]\n+  },\n+  {\n+   \"cell_type\": \"markdown\",\n+   \"metadata\": {},\n+   \"source\": [\n+    \"It seems that the final trunk layer of this model is call
…
