…
yer {\n+  name: \"MatMul_1\"\n+  type: \"InnerProduct\"\n+  bottom: \"MatMul\"\n+  top: \"MatMul_1\"\n+  inner_product_param {\n+    num_output: 10\n+    bias_term: false\n+  }\n+}\n+layer {\n+  name: \"y\"\n+  type: \"Softmax\"\n+  bottom: \"MatMul_1\"\n+  top: \"y\"\n+}\n+I0529 15:19:15.278178 72078 layer_factory.hpp:77] Creating layer Placeholder\n+I0529 15:19:15.278192 72078 net.cpp:84] Creating Layer Placeholder\n+I0529 15:19:15.278198 72078 net.cpp:380] Placeholder -> Placeholder\n+I0529 15:19:15.278224 72078 net.cpp:122] Setting up Placeholder\n+I0529 15:19:15.278231 72078 net.cpp:129] Top shape: 1 1 28 28 (784)\n+I0529 15:19:15.278237 72078 net.cpp:137] Memory required for data: 3136\n+I0529 15:19:15.278241 72078 layer_factory.hpp:77] Creating layer Conv2D\n+I0529 15:19:15.278249 72078 net.cpp:84] Creating Layer Conv2D\n+I0529 15:19:15.278254 72078 net.cpp:406] Conv2D <- Placeholder\n+I0529 15:19:15.278259 72078 net.cpp:380] Conv2D -> Conv2D\n+I0529 15:19:15.278275 72078 net.cpp:122] Setting up Conv2D\n+I0529 15:19:15.278281 72078 net.cpp:129] Top shape: 1 32 28 28 (25088)\n+I0529 15:19:15.278287 72078 net.cpp:137] Memory required for data: 103488\n+I0529 15:19:15.278295 72078 layer_factory.hpp:77] Creating layer Relu\n+I0529 15:19:15.278302 72078 net.cpp:84] Creating Layer Relu\n+I0529 15:19:15.278307 72078 net.cpp:406] Relu <- Conv2D\n+I0529 15:19:15.278313 72078 net.cpp:367] Relu -> Conv2D (in-place)\n+I0529 15:19:15.278321 72078 net.cpp:122] Setting up Relu\n+I0529 15:19:15.278326 72078 net.cpp:129] Top shape: 1 32 28 28 (25088)\n+I0529 15:19:15.278331 72078 net.cpp:137] Memory required for data: 203840\n+I0529 15:19:15.278335 72078 layer_factory.hpp:77] Creating layer MaxPool2d\n+I0529 15:19:15.278340 72078 net.cpp:84] Creating Layer MaxPool2d\n+I0529 15:19:15.278345 72078 net.cpp:406] MaxPool2d <- Conv2D\n+I0529 15:19:15.278350 72078 net.cpp:380] MaxPool2d -> MaxPool2d\n+I0529 15:19:15.278359 72078 net.cpp:122] Setting up MaxPool2d\n+I0529 15:19:15.278365 72078 net.cpp:129] Top shape: 1 32 14 14 (6272)\n+I0529 15:19:15.278371 72078 net.cpp:137] Memory required for data: 228928\n+I0529 15:19:15.278375 72078 layer_factory.hpp:77] Creating layer Conv2D_1\n+I0529 15:19:15.278383 72078 net.cpp:84] Creating Layer Conv2D_1\n+I0529 15:19:15.278386 72078 net.cpp:406] Conv2D_1 <- MaxPool2d\n+I0529 15:19:15.278391 72078 net.cpp:380] Conv2D_1 -> Conv2D_1\n+I0529 15:19:15.278417 72078 net.cpp:122] Setting up Conv2D_1\n+I0529 15:19:15.278424 72078 net.cpp:129] Top shape: 1 64 14 14 (12544)\n+I0529 15:19:15.278430 72078 net.cpp:137] Memory required for data: 279104\n+I0529 15:19:15.278441 72078 layer_factory.hpp:77] Creating layer Relu_1\n+I0529 15:19:15.278448 72078 net.cpp:84] Creating Layer Relu_1\n+I0529 15:19:15.278455 72078 net.cpp:406] Relu_1 <- Conv2D_1\n+I0529 15:19:15.278460 72078 net.cpp:367] Relu_1 -> Conv2D_1 (in-place)\n+I0529 15:19:15.278465 72078 net.cpp:122] Setting up Relu_1\n+I0529 15:19:15.278470 72078 net.cpp:129] Top shape: 1 64 14 14 (12544)\n+I0529 15:19:15.278475 72078 net.cpp:137] Memory required for data: 329280\n+I0529 15:19:15.278481 72078 layer_factory.hpp:77] Creating layer MaxPool2d_1\n+I0529 15:19:15.278486 72078 net.cpp:84] Creating Layer MaxPool2d_1\n+I0529 15:19:15.278491 72078 net.cpp:406] MaxPool2d_1 <- Conv2D_1\n+I0529 15:19:15.278496 72078 net.cpp:380] MaxPool2d_1 -> MaxPool2d_1\n+I0529 15:19:15.278503 72078 net.cpp:122] Setting up MaxPool2d_1\n+I0529 15:19:15.278509 72078 net.cpp:129] Top shape: 1 64 7 7 (3136)\n+I0529 15:19:15.278515 72078 net.cpp:137] Memory required for data: 341824\n+I0529 15:19:15.278519 72078 layer_factory.hpp:77] Creating layer Reshape\n+I0529 15:19:15.278525 72078 net.cpp:84] Creating Layer Reshape\n+I0529 15:19:15.278532 72078 net.cpp:406] Reshape <- MaxPool2d_1\n+I0529 15:19:15.278537 72078 net.cpp:380] Reshape -> Reshape\n+I0529 15:19:15.278545 72078 net.cpp:122] Setting up Reshape\n+I0529 15:19:15.278551 72078 net.cpp:129] Top shape: 1 3136 (3136)\n+I0529 15:19:15.278558 72078 net.cpp:137] Memory required for data: 354368\n+I0529 15:19:15.278561 72078 layer_factory.hpp:77] Creating layer MatMul\n+I0529 15:19:15.278566 72078 net.cpp:84] Creating Layer MatMul\n+I0529 15:19:15.278573 72078 net.cpp:406] MatMul <- Reshape\n+I0529 15:19:15.278578 72078 net.cpp:380] MatMul -> MatMul\n+I0529 15:19:15.283522 72078 net.cpp:122] Setting up MatMul\n+I0529 15:19:15.283550 72078 net.cpp:129] Top shape: 1 1024 (1024)\n+I0529 15:19:15.283557 72078 net.cpp:137] Memory required for data: 358464\n+I0529 15:19:15.283565 72078 layer_factory.hpp:77] Creating layer Relu_2\n+I0529 15:19:15.283573 72078 net.cpp:84] Creating Layer Relu_2\n+I0529 15:19:15.283577 72078 net.cpp:406] Relu_2 <- MatMul\n+I0529 15:19:15.283583 72078 net.cpp:367] Relu_2 -> MatMul (in-place)\n+I0529 15:19:15.283591 72078 net.cpp:122] Setting up Relu_2\n+I0529 15:19:15.283593 72078 net.cpp:129] Top shape: 1 1024 (1024)\n+I0529 15:19:15.283597 72078 net.cpp:137] Memory required for data: 362560\n+I0529 15:19:15.283601 72078 layer_factory.hpp:77] Creating layer MatMul_1\n+I0529 15:19:15.283607 72078 net.cpp:84] Creating Layer MatMul_1\n+I0529 15:19:15.283610 72078 net.cpp:406] MatMul_1 <- MatMul\n+I0529 15:19:15.283615 72078 net.cpp:380] MatMul_1 -> MatMul_1\n+I0529 15:19:15.283627 72078 net.cpp:122] Setting up MatMul_1\n+I0529 15:19:15.283633 72078 net.cpp:129] Top shape: 1 10 (10)\n+I0529 15:19:15.283638 72078 net.cpp:137] Memory required for data: 362600\n+I0529 15:19:15.283641 72078 layer_factory.hpp:77] Creating layer y\n+I0529 15:19:15.283648 72078 net.cpp:84] Creating Layer y\n+I0529 15:19:15.283651 72078 net.cpp:406] y <- MatMul_1\n+I0529 15:19:15.283656 72078 net.cpp:380] y -> y\n+I0529 15:19:15.283668 72078 net.cpp:122] Setting up y\n+I0529 15:19:15.283674 72078 net.cpp:129] Top shape: 1 10 (10)\n+I0529 15:19:15.283677 72078 net.cpp:137] Memory required for data: 362640\n+I0529 15:19:15.283681 72078 net.cpp:200] y does not need backward computation.\n+I0529 15:19:15.283685 72078 net.cpp:200] MatMul_1 does not need backward computation.\n+I0529 15:19:15.283689 72078 net.cpp:200] Relu_2 does not need backward computation.\n+I0529 15:19:15.283692 72078 net.cpp:200] MatMul does not n
…
