…
| hf\\n\",\n+    \"question = \\\"What is electroencephalography?\\\"\\n\",\n+    \"print(llm_chain.invoke(question))\"\n+   ]\n+  },\n+  {\n+   \"cell_type\": \"code\",\n+   \"execution_count\": 82,\n+   \"id\": \"1ec156a0-7540-4b01-a529-9c53b54957e5\",\n+   \"metadata\": {},\n+   \"outputs\": [\n+    {\n+     \"name\": \"stderr\",\n+     \"output_type\": \"stream\",\n+     \"text\": [\n+      \"llama_model_loader: loaded meta data with 22 key-value pairs and 291 tensors from /Users/ben/Downloads/Hermes-2-Pro-Mistral-7B.Q5_0.gguf (version GGUF V3 (latest))\\n\",\n+      \"llama_model_loader: - tensor    0:                token_embd.weight q5_0     [  4096, 32032,     1,     1 ]\\n\",\n+      \"llama_model_loader: - tensor    1:           blk.0.attn_norm.weight f32      [  4096,     1,     1,     1 ]\\n\",\n+      \"llama_model_loader: - tensor    2:            blk.0.ffn_down.weight q5_0     [ 14336,  4096,     1,     1 ]\\n\",\n+      \"llama_model_loader: - tensor    3:            blk.0.ffn_gate.weight q5_0     [  4096, 14336,     1,     1 ]\\n\",\n+      \"llama_model_loader: - tensor    4:              blk.0.ffn_up.weight q5_0     [  4096, 14336,     1,     1 ]\\n\",\n+      \"llama_model_loader: - tensor    5:            blk.0.ffn_norm.weight f32      [  4096,     1,     1,     1 ]\\n\",\n+      \"llama_model_loader: - tensor    6:              blk.0.attn_k.weight q5_0     [  4096,  1024,     1,     1 ]\\n\",\n+      \"llama_model_loader: - tensor    7:         blk.0.attn_output.weight q5_0     [  4096,  4096,     1,     1 ]\\n\",\n+      \"llama_model_loader: - tensor    8:              blk.0.attn_q.weight q5_0     [  4096,  4096,     1,     1 ]\\n\",\n+      \"llama_model_loader: - tensor    9:              blk.0.attn_v.weight q5_0     [  4096,  1024,     1,     1 ]\\n\",\n+      \"llama_model_loader: - tensor   10:           blk.1.attn_norm.weight f32      [  4096,     1,     1,     1 ]\\n\",\n+      \"llama_model_loader: - tensor   11:            blk.1.ffn_down.weight q5_0     [ 14336,  4096,     1,     1 ]\\n\",\n+      \"llama_model_loader: - tensor   12:            blk.1.ffn_gate.weight q5_0     [  4096, 14336,     1,     1 ]\\n\",\n+      \"llama_model_loader: - tensor   13:              blk.1.ffn_up.weight q5_0     [  4096, 14336,     1,     1 ]\\n\",\n+      \"llama_model_loader: - tensor   14:            blk.1.ffn_norm.weight f32      [  4096,     1,     1,     1 ]\\n\",\n+      \"llama_model_loader: - tensor   15:              blk.1.attn_k.weight q5_0     [  4096,  1024,     1,     1 ]\\n\",\n+      \"llama_model_loader: - tensor   16:         blk.1.attn_output.weight q5_0     [  4096,  4096,     1,     1 ]\\n\",\n+      \"llama_model_loader: - tensor   17:              blk.1.attn_q.weight q5_0     [  4096,  4096,     1,     1 ]\\n\",\n+      \"llama_model_loader: - tensor   18:              blk.1.attn_v.weight q5_0     [  4096,  1024,     1,     1 ]\\n\",\n+      \"llama_model_loader: - tensor   19:           blk.2.attn_norm.weight f32      [  4096,     1,     1,     1 ]\\n\",\n+      \"llama_model_loader: - tensor   20:            blk.2.ffn_down.weight q5_0     [ 14336,  4096,     1,     1 ]\\n\",\n+      \"llama_model_loader: - tensor   21:            blk.2.ffn_gate.weight q5_0     [  4096, 14336,     1,     1 ]\\n\",\n+      \"llama_model_loader: - tensor   22:              blk.2.ffn_up.weight q5_0     [  4096, 14336,     1,     1 ]\\n\",\n+      \"llama_model_loader: - tensor   23:            blk.2.ffn_norm.weight f32      [  4096,     1,     1,     1 ]\\n\",\n+      \"llama_model_loader: - tensor   24:              blk.2.attn_k.weight q5_0     [  4096,  1024,     1,     1 ]\\n\",\n+      \"llama_model_loader: - tensor   25:         blk.2.attn_output.weight q5_0     [  4096,  4096,     1,     1 ]\\n\",\n+      \"llama_model_loader: - tensor   26:              blk.2.attn_q.weight q5_0     [  4096,  4096,     1,     1 ]\\n\",\n+      \"llama_model_loader: - tensor   27:              blk.2.attn_v.weight q5_0     [  4096,  1024,     1,     1 ]\\n\",\n+      \"llama_model_loader: - tensor   28:           blk.3.attn_norm.weight f32      [  4096,     1,     1,     1 ]\\n\",\n+      \"llama_model_loader: - tensor   29:            blk.3.ffn_down.weight q5_0     [ 14336,  4096,     1,     1 ]\\n\",\n+      \"llama_model_loader: - tensor   30:            blk.3.ffn_gate.weight q5_0     [  4096, 14336,     1,     1 ]\\n\",\n+      \"llama_model_loader: - tensor   31:              blk.3.ffn_up.weight q5_0     [  4096, 14336,     1,     1 ]\\n\",\n+      \"llama_model_loader: - tensor   32:            blk.3.ffn_norm.weight f32      [  4096,     1,     1,     1 ]\\n\",\n+      \"llama_model_loader: - tensor   33:              blk.3.attn_k.weight q5_0     [  4096,  1024,     1,     1 ]\\n\",\n+      \"llama_model_loader: - tensor   34:         blk.3.attn_output.weight q5_0     [  4096,  4096,     1,     1 ]\\n\",\n+      \"llama_model_loader: - tensor   35:              blk.3.attn_q.weight q5_0     [  4096,  4096,     1,     1 ]\\n\",\n+      \"llama_model_loader: - tensor   36:              blk.3.attn_v.weight q5_0     [  4096,  1024,     1,     1 ]\\n\",\n+      \"llama_model_loader: - tensor   37:           blk.4.attn_norm.weight f32      [  4096,     1,     1,     1 ]\\n\",\n+      \"llama_model_loader: - tensor   38:            blk.4.ffn_down.weight q5_0     [ 14336,  4096,     1,     1 ]\\n\",\n+      \"llama_model_loader: - tensor   39:            blk.4.ffn_gate.weight q5_0     [  4096, 14336,     1,     1 ]\\n\",\n+      \"llama_model_loader: - tensor   40:              blk.4.ffn_up.weight q5_0     [  4096, 14336,     1,     1 ]\\n\",\n+      \"llama_model_loader: - tensor   41:            blk.4.ffn_norm.weight f32      [  4096,     1,     1,     1 ]\\n\",\n+      \"llama_model_loader: - tensor   42:              blk.4.attn_k.weight q5_0     [  4096,  1024,     1,     1 ]\\n\",\n+      \"llama_model_loader: - tensor   43:         blk.4.attn_output.weight q5_0     [  4096,  4096,     1,     1 ]\\n\",\n+      \"llama_model_loader: - tensor   44:              blk.4.attn_q.weight q5_0     [  4096,  4096,     1,     1 ]\\n\",\n+      \"llama_model_loader: - tensor   45:              blk.4.attn_v.weight q5_0     [  4096,  1024,     1,     1 ]\\n\",\n+      \"llama_model_loader: - tensor   46:           blk.5.attn_norm.weight f32      [  4096,     1,     1,     1 ]\\n\",\n+      \"llama_model_loader: - tensor   47:            blk.5.ffn_down.weight q5_0     [ 14336,  4096,     1,     1 ]\\n\",\n+      \"llama_model_loader: - tensor   48:            blk.5.ffn_gate.weight q5_0     [  4096, 14336,     1,     1 ]\\n\",\n+      \"llama_model_loader: - tensor   49:              blk.5.ffn_up.weight q5_0     [  4096, 14336,     1,     1 ]\\n\",\n+      \"llama_model_loader: - tensor   50:            blk.5.ffn_norm.weight f32      [  4096,     1,     1,     1 ]\\n\",\n+      \"llama_model_loader: - tensor   51:              blk.5.attn_k.weight q5_0     [  4096,  1024,     1,     1 ]\\n\",\n+      \"llama_model_loader: - tensor   52:         blk.5.attn_output.weight q5_0     [  4096,  4096,     1,     1 ]\\n\",\n+      \"llama_model_loader: - tensor   53:              blk.5.attn_q.weight q5_0     [  4096,  4096,     1,     1 ]\\n\",\n+      \"llama_model_loader: - tensor   54:              blk.5.attn_v.weight q5_0     [  4096,  1024,     1,     1 ]\\n\",\n+      \"llama_model_loader: - tensor   55:           blk.6.attn_norm.weight f32      [  4096,     1,     1,     1 ]\\n\",\n+      \"llama_model_loader: - tensor   56:            blk.6.ffn_down.weight q5_0     [ 14336,  4096,     1,     1 ]\\n\",\n+      \"llama_model_loader: - tensor   57:            blk.6.ffn_gate.weight q5_0     [  4096, 14336,     1,     1 ]\\n\",\n+      \"llama_model_loader: - tensor   58:              blk.6.ffn_up.weight q5_0     [  4096, 14336,     1,     1 ]\\n\",\n+      \"llama_model_loader: - tensor   59:            blk.6.ffn_norm.weight f32      [  4096,     1,     1,     1 ]\\n\",\n+      \"llama_model_loader: - tensor   60:              blk.6.attn_k.weight q5_0     [  4096,  1024,     1,     1 ]\\n\",\n+      \"llama_model_loader: - tensor   61:         blk.6.attn_output.weight q5_0     [  4096,  4096,     1,     1 ]\\n\",\n+      \"llama_model_loader: - tensor   62:              blk.6.attn_q.weight q5_0     [  4096,  4096,     1,     1 ]\\n\",\n+      \"llama_model_loader: - tensor   63:              blk.6.attn_v.weight q5_0     [  4096,  1024,     1,     1 ]\\n\",\n+      \"llama_model_loader: - tensor   64:           blk.7.attn_norm.weight f32      [  4096,     1,     1,     1 ]\\n\",\n+      \"llama_model_loader: - tensor   65:            blk.7.ffn_down.weight q5_0     [ 14336,  4096,     1,     1 ]\\n\",\n+      \"llama_model_loader: - tensor   66:            blk.7.ffn_gate.weight q5_0     [  4096, 14336,     1,     1 ]\\n\",\n+      \"llama_model_loader: - tensor   67:              blk.7.ffn_up.weight q5_0     [  4096, 14336,     1,     1 ]\\n\",\n+      \"llama_model_loader: - tensor   68:            blk.7.ffn_norm.weight f32      [  4096,     1,     1,     1 ]\\n\",\n+      \"llama_model_loader: - tensor   69:              blk.7.attn_k.weight q5_0     [  4096,  1024,     1,     1 ]\\n\",\n+      \"llama_model_loader: - tensor   70:         blk.7.attn_output.weight q5_0     [  4096,  4096,     1,     1 ]\\n\",\n+      \"llama_model_loader: - tensor   71:              blk.7.attn_q.weight q5_0     [  4096,  4096,     1,     1 ]\\n\",\n+      \"llama_model_loader: - tensor   72:              blk.7.attn_v.weight q5_0     [  4096,  1024,     1,     1 ]\\n\",\n+      \"llama_model_loader: - tensor   73:            blk.8.ffn_gate.weight q5_0     [  4096, 14336,     1,     1 ]\\n\",\n+      \"llama_model_loader: - tensor   74:              blk.8.attn_k.weight q5_0     [  4096,  1024,     1,     1 ]\\n\",\n+      \"llama_model_loader: - tensor   75:         blk.8.attn_output.weight q5_0     [  4096,  4096,     1,     1 ]\\n\",\n+      \"llama_model_loader: - tensor   76:              blk.8.attn_q.weight q5_0     [  4096,  4096,     1,     1 ]\\n\",\n+      \"llama_model_loader: - tensor   77:              blk.8.attn_v.weight q5_0     [  4096,  1024,     1,     1 ]\\n\",\n+      \"llama_model_loader: - tensor   78:          blk.10.attn_norm.weight f32      [  4096,     1,     1,     1 ]\\n\",\n+      \"llama_model_loader: - tensor   79:           blk.10.ffn_down.weight q5_0     [ 14336,  4096,     1,     1 ]\\n\",\n+      \"llama_model_loader: - tensor   80:           blk.10.ffn_gate.weight q5_0     [  4096, 14336,     1,     1 ]\\n\",\n+      \"llama_model_loader: - tensor   81:             blk.10.ffn_up.weight q5_0     [  4096, 14336,     1,     1 ]\\n\",\n+      \"llama_model_loader: - tensor   82:           blk.10.ffn_norm.weight f32      [  4096,     1,     1,     1 ]\\n\",\n+      \"llama_model_loader: - tensor   83:             blk.10.attn_k.weight q5_0     [  4096,  1024,     1,     1 ]\\n\",\n+      \"llama_model_loader: - tensor   84:        blk.10.attn_output.weight q5_0     [  4096,  4096,     1,     1 ]\\n\",\n+      \"llama_model_loader: - tensor   85:             blk.10.attn_q.weight q5_0     [  4096,  4096,     1,     1 ]\\n\",\n+      \"llama_model_loader: - tensor   86:             blk.10.attn_v.weight q5_0     [  4096,  1024,     1,     1 ]\\n\",\n+      \"llama_model_loader: - tensor   87:          blk.11.attn_norm.weight f32      [  4096,     1,     1,     1 ]\\n\",\n+      \"llama_model_loader: - tensor   88:           blk.11.ffn_down.weight q5_0     [ 14336,  4096,     1,     1 ]\\n\",\n+      \"llama_model_loader: - tensor   89:           blk.11.ffn_gate.weight q5_0     [  4096, 14336,     1,     1 ]\\n\",\n+      \"llama_model_loader: - tensor   90:             blk.11.ffn_up.weight q5_0     [  4096, 14336,     1,     1 ]\\n\",\n+      \"llama_model_loader: - tensor   91:           blk.11.ffn_norm.weight f32      [  4096,     1,     1,     1 ]\\n\",\n+      \"llama_model_loader: - tensor   92:             blk.11.attn_k.weight q5_0     [  4096,  1024,     1,     1 ]\\n\",\n+      \"llama_model_loader: - tensor   93:        blk.11.attn_output.weight q5_0     [  4096,  4096,     1,     1 ]\\n\",\n+      \"llama_model_loader: - tensor   94:             blk.11.attn_q.weight q5_0     [  4096,  4096,     1,     1 ]\\n\",\n+      \"llama_model_loader: - tensor   95:             blk.11.attn_v.weight q5_0     [  4096,  1024,     1,     1 ]\\n\",\n+      \"llama_model_loader: - tensor   96:          blk.12.attn_norm.weight f32      [  4096,     1,     1,     1 ]\\n\",\n+      \"llama_model_loader: - tensor   97:           blk.12.ffn_down.weight q5_0     [ 14336,  4096,     1,     1 ]\\n\",\n+      \"llama_model_loader: - tensor   98:           blk.12.ffn_gate.weight q5_0     [  4096, 14336,     1,     1 ]\\n\",\n+      \"llama_model_loader: - tensor   99:             blk.12.ffn_up.weight q5_0     [  4096, 14336,     1,     1 ]\\n\",\n+      \"llama_model_loader: - tensor  100:           blk.12.ffn_norm.weight f32      [  4096,     1,     1,     1 ]\\n\",\n+      \"llama_model_loader: - tensor  101:             blk.12.attn_k.weight q5_0     [  4096,  1024,     1,     1 ]\\n\",\n+      \"llama_model_loader: - tensor  102:        blk.12.attn_output.weight q5_0     [  4096,  4096,     1,     1 ]\\n\",\n+      \"llama_model_loader: - tensor  103:             blk.12.attn_q.weight q5_0     [  4096,  4096,     1,     1 ]\\n\",\n+      \"llama_model_loader: - tensor  104:             blk.12.attn_v.weight q5_0     [  4096,  1024,     1,     1 ]\\n\",\n+      \"llama_model_loader: - tensor  105:          blk.13.attn_norm.weight f32      [  4096,     1,     1,     1 ]\\n\",\n+      \"llama_model_loader: - tensor  106:           blk.13.ffn_down.weight q5_0     [ 14336,  4096,     1,     1 ]\\n\",\n+      \"llama_model_loader: - tensor  107:           blk.13.ffn_gate.weight q5_0     [  4096, 14336,     1,     1 ]\\n\",\n+      \"llama_model_loader: - tensor  108:             blk.13.ffn_up.weight q5_0     [  4096, 14336,     1,     1 ]\\n\",\n+      \"llama_model_loader: - tensor  109:           blk.13.ffn_norm.weight f32      [  4096,     1,     1,     1 ]\\n\",\n+      \"llama_model_loader: - tensor  110:             blk.13.attn_k.weight q5_0     [  4096,  1024,     1,     1 ]\\n\",\n+      \"llama_model_loader: - tensor  111:        blk.13.attn_output.weight q5_0     [  4096,  4096,     1,     1 ]\\n\",\n+      \"llama_model_loader: - tensor  112:             blk.13.attn_q.weight q5_0     [  4096,  4096,     1,     1 ]\\n\",\n+      \"llama_model_loader: - tensor  113:             blk.13.attn_v.weight q5_0     [  4096,  1024,     1,     1 ]\\n\",\n+      \"llama_model_loader: - tensor  114:          blk.14.attn_norm.weight f32      [  4096,     1,     1,     1 ]\\n\",\n+      \"llama_model_loader: - tensor  115:           blk.14.ffn_down.weight q5_0     [ 14336,  4096,     1,     1 ]\\n\",\n+      \"llama_model_loader: - tensor  116:           blk.14.ffn_gate.weight q5_0     [  4096, 14336,     1,     1 ]\\n\",\n+      \"llama_model_loader: - tensor  117:             blk.14.ffn_up.weight q5_0     [  4096, 14336,     1,     1 ]\\n\",\n+      \"llama_model_loader: - tensor  118:           blk.14.ffn_norm.weight f32      [  4096,     1,     1,     1 ]\\n\",\n+      \"llama_model_loader: - tensor  119:             blk.14.attn_k.weight q5_0     [  4096,  1024,     1,     1 ]\\n\",\n+      \"llama_model_loader: - tensor  120:        blk.14.attn_output.weight q5_0     [  4096,  4096,     1,     1 ]\\n\",\n+      \"llama_model_loader: - tensor  121:             blk.14.attn_q.weight q5_0     [  4096,  4096,     1,     1 ]\\n\",\n+      \"llama_model_loader: - tensor  122:             blk.14.attn_v.weight q5_", "changed_files": [{"status": "A", "path": "chapter3/LLMs_chat_models_and_prompts.ipynb"}, {"status": "A", "path": "chapter3/Running local models.ipynb"}, {"status": "A", "path": "chapter3/customer_service_use_case.ipynb"}, {"status": "A", "path": "chapter3/map-reduce.ipynb"}, {"status": "A", "path": "chapter3/tracking_costs.ipynb"}], "n_files_changed": 5}
{"r
…
