…
   \"outputs\": [\n-    {\n-     \"name\": \"stdout\",\n-     \"output_type\": \"stream\",\n-     \"text\": [\n-      \"Model loaded successfully from /Users/pfz/.cache/huggingface/hub/models--facebook--videoseal/snapshots/8ad5f54cabb89a0d3e6591f06d0ac90f12bca7e1/checkpoint.pth with message: <All keys matched successfully>\\n\"\n-     ]\n-    },\n-    {\n-     \"data\": {\n-      \"text/plain\": [\n-       \"Videoseal(\\n\",\n-       \"  (embedder): UnetEmbedder(\\n\",\n-       \"    (unet): UNetMsg(\\n\",\n-       \"      (msg_processor): MsgProcessor(\\n\",\n-       \"        (msg_embeddings): Embedding(192, 192)\\n\",\n-       \"      )\\n\",\n-       \"      (inc): ResnetBlock(\\n\",\n-       \"        (double_conv): Sequential(\\n\",\n-       \"          (0): Conv2d(3, 16, kernel_size=(3, 3), stride=(1, 1), padding=(1, 1), bias=False)\\n\",\n-       \"          (1): ChanRMSNorm()\\n\",\n-       \"          (2): SiLU()\\n\",\n-       \"          (3): Conv2d(16, 16, kernel_size=(3, 3), stride=(1, 1), padding=(1, 1), bias=False)\\n\",\n-       \"          (4): ChanRMSNorm()\\n\",\n-       \"          (5): SiLU()\\n\",\n-       \"        )\\n\",\n-       \"        (res_conv): Conv2d(3, 16, kernel_size=(1, 1), stride=(1, 1))\\n\",\n-       \"      )\\n\",\n-       \"      (downs): ModuleList(\\n\",\n-       \"        (0): DBlock(\\n\",\n-       \"          (down): Conv2d(16, 32, kernel_size=(3, 3), stride=(2, 2), padding=(1, 1))\\n\",\n-       \"          (conv): ResnetBlock(\\n\",\n-       \"            (double_conv): Sequential(\\n\",\n-       \"              (0): Conv2d(32, 32, kernel_size=(3, 3), stride=(1, 1), padding=(1, 1), bias=False)\\n\",\n-       \"              (1): ChanRMSNorm()\\n\",\n-       \"              (2): SiLU()\\n\",\n-       \"              (3): Conv2d(32, 32, kernel_size=(3, 3), stride=(1, 1), padding=(1, 1), bias=False)\\n\",\n-       \"              (4): ChanRMSNorm()\\n\",\n-       \"              (5): SiLU()\\n\",\n-       \"            )\\n\",\n-       \"            (res_conv): Conv2d(32, 32, kernel_size=(1, 1), stride=(1, 1))\\n\",\n-       \"          )\\n\",\n-       \"        )\\n\",\n-       \"        (1): DBlock(\\n\",\n-       \"          (down): Conv2d(32, 64, kernel_size=(3, 3), stride=(2, 2), padding=(1, 1))\\n\",\n-       \"          (conv): ResnetBlock(\\n\",\n-       \"            (double_conv): Sequential(\\n\",\n-       \"              (0): Conv2d(64, 64, kernel_size=(3, 3), stride=(1, 1), padding=(1, 1), bias=False)\\n\",\n-       \"              (1): ChanRMSNorm()\\n\",\n-       \"              (2): SiLU()\\n\",\n-       \"              (3): Conv2d(64, 64, kernel_size=(3, 3), stride=(1, 1), padding=(1, 1), bias=False)\\n\",\n-       \"              (4): ChanRMSNorm()\\n\",\n-       \"              (5): SiLU()\\n\",\n-       \"            )\\n\",\n-       \"            (res_conv): Conv2d(64, 64, kernel_size=(1, 1), stride=(1, 1))\\n\",\n-       \"          )\\n\",\n-       \"        )\\n\",\n-       \"        (2): DBlock(\\n\",\n-       \"          (down): Conv2d(64, 128, kernel_size=(3, 3), stride=(2, 2), padding=(1, 1))\\n\",\n-       \"          (conv): ResnetBlock(\\n\",\n-       \"            (double_conv): Sequential(\\n\",\n-       \"              (0): Conv2d(128, 128, kernel_size=(3, 3), stride=(1, 1), padding=(1, 1), bias=False)\\n\",\n-       \"              (1): ChanRMSNorm()\\n\",\n-       \"              (2): SiLU()\\n\",\n-       \"              (3): Conv2d(128, 128, kernel_size=(3, 3), stride=(1, 1), padding=(1, 1), bias=False)\\n\",\n-       \"              (4): ChanRMSNorm()\\n\",\n-       \"              (5): SiLU()\\n\",\n-       \"            )\\n\",\n-       \"            (res_conv): Conv2d(128, 128, kernel_size=(1, 1), stride=(1, 1))\\n\",\n-       \"          )\\n\",\n-       \"        )\\n\",\n-       \"      )\\n\",\n-       \"      (bottleneck): BottleNeck(\\n\",\n-       \"        (model): Sequential(\\n\",\n-       \"          (0): ResnetBlock(\\n\",\n-       \"            (double_conv): Sequential(\\n\",\n-       \"              (0): Conv2d(320, 320, kernel_size=(3, 3), stride=(1, 1), padding=(1, 1), bias=False)\\n\",\n-       \"              (1): ChanRMSNorm()\\n\",\n-       \"              (2): SiLU()\\n\",\n-       \"              (3): Conv2d(320, 320, kernel_size=(3, 3), stride=(1, 1), padding=(1, 1), bias=False)\\n\",\n-       \"              (4): ChanRMSNorm()\\n\",\n-       \"              (5): SiLU()\\n\",\n-       \"            )\\n\",\n-       \"            (res_conv): Conv2d(320, 320, kernel_size=(1, 1), stride=(1, 1))\\n\",\n-       \"          )\\n\",\n-       \"          (1): ResnetBlock(\\n\",\n-       \"            (double_conv): Sequential(\\n\",\n-       \"              (0): Conv2d(320, 320, kernel_size=(3, 3), stride=(1, 1), padding=(1, 1), bias=False)\\n\",\n-       \"              (1): ChanRMSNorm()\\n\",\n-       \"              (2): SiLU()\\n\",\n-       \"              (3): Conv2d(320, 320, kernel_size=(3, 3), stride=(1, 1), padding=(1, 1), bias=False)\\n\",\n-       \"              (4): ChanRMSNorm()\\n\",\n-       \"              (5): SiLU()\\n\",\n-       \"            )\\n\",\n-       \"            (res_conv): Conv2d(320, 320, kernel_size=(1, 1), stride=(1, 1))\\n\",\n-       \"          )\\n\",\n-       \"          (2): ResnetBlock(\\n\",\n-       \"            (double_conv): Sequential(\\n\",\n-       \"              (0): Conv2d(320, 320, kernel_size=(3, 3), stride=(1, 1), padding=(1, 1), bias=False)\\n\",\n-       \"              (1): ChanRMSNorm()\\n\",\n-       \"              (2): SiLU()\\n\",\n-       \"              (3): Conv2d(320, 320, kernel_size=(3, 3), stride=(1, 1), padding=(1, 1), bias=False)\\n\",\n-       \"              (4): ChanRMSNorm()\\n\",\n-       \"              (5): SiLU()\\n\",\n-       \"            )\\n\",\n-       \"            (res_conv): Conv2d(320, 320, kernel_size=(1, 1), stride=(1, 1))\\n\",\n-       \"          )\\n\",\n-       \"          (3): ResnetBlock(\\n\",\n-       \"            (double_conv): Sequential(\\n\",\n-       \"              (0): Conv2d(320, 320, kernel_size=(3, 3), stride=(1, 1), padding=(1, 1), bias=False)\\n\",\n-       \"              (1): ChanRMSNorm()\\n\",\n-       \"              (2): SiLU()\\n\",\n-       \"              (3): Conv2d(320, 320, kernel_size=(3, 3), stride=(1, 1), padding=(1, 1), bias=False)\\n\",\n-       \"              (4): ChanRMSNorm()\\n\",\n-       \"              (5): SiLU()\\n\",\n-       \"            )\\n\",\n-       \"            (res_conv): Conv2d(320, 320, kernel_size=(1, 1), stride=(1, 1))\\n\",\n-       \"          )\\n\",\n-       \"          (4): ResnetBlock(\\n\",\n-       \"            (double_conv): Sequential(\\n\",\n-       \"              (0): Conv2d(320, 320, kernel_size=(3, 3), stride=(1, 1), padding=(1, 1), bias=False)\\n\",\n-       \"              (1): ChanRMSNorm()\\n\",\n-       \"              (2): SiLU()\\n\",\n-       \"              (3): Conv2d(320, 320, kernel_size=(3, 3), stride=(1, 1), padding=(1, 1), bias=False)\\n\",\n-       \"              (4): ChanRMSNorm()\\n\",\n-       \"              (5): SiLU()\\n\",\n-       \"            )\\n\",\n-       \"            (res_conv): Conv2d(320, 320, kernel_size=(1, 1), stride=(1, 1))\\n\",\n-       \"          )\\n\",\n-       \"          (5): ResnetBlock(\\n\",\n-       \"            (double_conv): Sequential(\\n\",\n-       \"              (0): Conv2d(320, 320, kernel_size=(3, 3), stride=(1, 1), padding=(1, 1), bias=False)\\n\",\n-       \"              (1): ChanRMSNorm()\\n\",\n-       \"              (2): SiLU()\\n\",\n-       \"              (3): Conv2d(320, 320, kernel_size=(3, 3), stride=(1, 1), padding=(1, 1), bias=False)\\n\",\n-       \"              (4): ChanRMSNorm()\\n\",\n-       \"              (5): SiLU()\\n\",\n-       \"            )\\n\",\n-       \"            (res_conv): Conv2d(320, 320, kernel_size=(1, 1), stride=(1, 1))\\n\",\n-       \"          )\\n\",\n-       \"          (6): ResnetBlock(\\n\",\n-       \"            (double_conv): Sequential(\\n\",\n-       \"              (0): Conv2d(320, 320, kernel_size=(3, 3), stride=(1, 1), padding=(1, 1), bias=False)\\n\",\n-       \"              (1): ChanRMSNorm()\\n\",\n-       \"              (2): SiLU()\\n\",\n-       \"              (3): Conv2d(320, 320, kernel_size=(3, 3), stride=(1, 1), padding=(1, 1), bias=False)\\n\",\n-       \"              (4): ChanRMSNorm()\\n\",\n-       \"              (5): SiLU()\\n\",\n-       \"            )\\n\",\n-       \"            (res_conv): Conv2d(320, 320, kernel_size=(1, 1), stride=(1, 1))\\n\",\n-       \"          )\\n\",\n-       \"          (7): ResnetBlock(\\n\",\n-       \"            (double_conv): Sequential(\\n\",\n-       \"              (0): Conv2d(320, 320, kernel_size=(3, 3), stride=(1, 1), padding=(1, 1), bias=False)\\n\",\n-       \"              (1): ChanRMSNorm()\\n\",\n-       \"              (2): SiLU()\\n\",\n-       \"              (3): Conv2d(320, 320, kernel_size=(3, 3), stride=(1, 1), padding=(1, 1), bias=False)\\n\",\n-       \"              (4): ChanRMSNorm()\\n\",\n-       \"              (5): SiLU()\\n\",\n-       \"            )\\n\",\n-       \"            (res_conv): Conv2d(320, 320, kernel_size=(1, 1), stride=(1, 1))\\n\",\n-       \"          )\\n\",\n-       \"        )\\n\",\n-       \"      )\\n\",\n-       \"      (ups): ModuleList(\\n\",\n-       \"        (0): UBlock(\\n\",\n-       \"          (up): Upsample(\\n\",\n-       \"            (upsample_block): Sequential(\\n\",\n-       \"              (0): Upsample(scale_factor=2.0, mode='bilinear')\\n\",\n-       \"              (1): ReflectionPad2d((1, 1, 1, 1))\\n\",\n-       \"              (2): Conv2d(640, 64, kernel_size=(3, 3), stride=(1, 1), bias=False)\\n\",\n-       \"              (3): LayerNorm()\\n\",\n-       \"              (4): SiLU()\\n\",\n-       \"            )\\n\",\n-       \"          )\\n\",\n-       \"          (conv): ResnetBlock(\\n\",\n-       \"            (double_conv): Sequential(\\n\",\n-       \"              (0): Conv2d(64, 64, kernel_size=(3, 3), stride=(1, 1), padding=(1, 1), bias=False)\\n\",\n-       \"              (1): ChanRMSNorm()\\n\",\n-       \"              (2): SiLU()\\n\",\n-       \"              (3): Conv2d(64, 64, kernel_size=(3, 3), stride=(1, 1), padding=(1, 1), bias=False)\\n\",\n-       \"              (4): ChanRMSNorm()\\n\",\n-       \"              (5): SiLU()\\n\",\n-       \"            )\\n\",\n-       \"            (res_conv): Conv2d(64, 64, kernel_size=(1, 1), stride=(1, 1))\\n\",\n-       \"          )\\n\",\n-       \"        )\\n\",\n-       \"        (1): UBlock(\\n\",\n-       \"          (up): Upsample(\\n\",\n-       \"            (upsample_block): Sequential(\\n\",\n-       \"              (0): Upsample(scale_factor=2.0, mode='bilinear')\\n\",\n-       \"              (1): ReflectionPad2d((1, 1, 1, 1))\\n\",\n-       \"              (2): Conv2d(128, 32, kernel_size=(3, 3), stride=(1, 1), bias=False)\\n\",\n-       \"              (3): LayerNorm()\\n\",\n-       \"              (4): SiLU()\\n\",\n-       \"            )\\n\",\n-       \"          )\\n\",\n-       \"          (conv): ResnetBlock(\\n\",\n-       \"            (double_conv): Sequential(\\n\",\n-       \"              (0): Conv2d(32, 32, kernel_size=(3, 3), stride=(1, 1), padding=(1, 1), bias=False)\\n\",\n-       \"              (1): ChanRMSNorm()\\n\",\n-       \"              (2): SiLU()\\n\",\n-       \"              (3): Conv2d(32, 32, kernel_size=(3, 3), stride=(1, 1), padding=(1, 1), bias=False)\\n\",\n-       \"              (4): ChanRMSNorm()\\n\",\n-       \"              (5): SiLU()\\n\",\n-       \"            )\\n\",\n-       \"            (res_conv): Conv2d(32, 32, kernel_size=(1, 1), stride=(1, 1))\\n\",\n-       \"          )\\n\",\n-       \"        )\\n\",\n-       \"        (2): UBlock(\\n\",\n-       \"          (up): Upsample(\\n\",\n-       \"            (upsample_block): Sequential(\\n\",\n-       \"              (0): Upsample(scale_factor=2.0, mode='bilinear')\\n\",\n-       \"              (1): ReflectionPad2d((1, 1, 1, 1))\\n\",\n-       \"              (2): Conv2d(64, 16, kernel_size=(3, 3), stride=(1, 1), bias=False)\\n\",\n-       \"              (3): LayerNorm()\\n\",\n-       \"              (4): SiLU()\\n\",\n-       \"            )\\n\",\n-       \"          )\\n\",\n-       \"          (conv): ResnetBlock(\\n\",\n-       \"            (double_conv): Sequential(\\n\",\n-       \"              (0): Conv2d(16, 16, kernel_size=(3, 3), stride=(1, 1), padding=(1, 1), bias=False)\\n\",\n-       \"              (1): ChanRMSNorm()\\n\",\n-       \"              (2): SiLU()\\n\",\n-       \"              (3): Conv2d(16, 16, kernel_size=(3, 3), stride=(1, 1), padding=(1, 1), bias=False)\\n\",\n-       \"              (4): ChanRMSNorm()\\n\",\n-       \"              (5): SiLU()\\n\",\n-       \"            )\\n\",\n-       \"            (res_conv): Conv2d(16, 16, kernel_size=(1, 1), stride=(1, 1))\\n\",\n-       \"          )\\n\",\n-       \"        )\\n\",\n-       \"      )\\n\",\n-       \"      (outc): Conv2d(16, 3, kernel_size=(1, 1), stride=(1, 1))\\n\",\n-       \"    )\\n\",\n-       \"    (msg_processor): MsgProcessor(\\n\",\n-       \"      (msg_embeddings): Embedding(192, 192)\\n\",\n-       \"    )\\n\",\n-       \"  )\\n\",\n-       \"  (detector): SegmentationExtractor(\\n\",\n-       \"    (image_encoder): ImageEncoderViT(\\n\",\n-       \"      (patch_embed): PatchEmbed(\\n\",\n-       \"        (proj): Conv2d(3, 384, kernel_size=(16, 16), stride=(16, 16))\\n\",\n-       \"      )\\n\",\n-       \"      (blocks): ModuleList(\\n\",\n-       \"        (0-11): 12 x Block(\\n\",\n-       \"          (norm1): LayerNorm((384,), eps=1e-05, elementwise_affine=True)\\n\",\n-       \"          (attn): Attention(\\n\",\n-       \"            (qkv): Linear(in_features=384, out_features=1152, bias=True)\\n\",\n-       \"            (proj): Linear(in_features=384, out_features=384, bias=True)\\n\",\n-       \"          )\\n\",\n-       \"          (norm2): LayerNorm((384,), eps=1e-05, elementwise_affine=True)\\n\",\n-       \"          (mlp): MLPBlock(\\n\",\n-       \"            (lin1): Linear(in_features=384, out_features=1536, bias=True)\\n\",\n-       \"            (lin2): Linear(in_features=1536, out_features=384, bias=True)\\n\",\n-       \"            (act): GELU(approximate='none')\\n\",\n-       \"          )\\n\",\n-       \"        )\\n\",\n-       \"      )\\n\",\n-       \"      (neck): Sequential(\\n\",\n-       \"        (0): Conv2d(384, 384, kernel_size=(1, 1), stride=(1, 1), bias=False)\\n\",\n-       \"        (1): LayerNorm()\\n\",\n-       \"        (2): Conv2d(384, 384, kernel_size=(3, 3), stride=(1, 1), padding=(1, 1), bias=False)\\n\",\n-       \"        (3): LayerNorm()\\n\",\n-       \"      )\\n\",\n-       \"    )\\n\",\n-       \"    (pixel_decoder): PixelDecoder(\\n\",\n-       \"      (output_upscaling): Sequential(\\n\",\n-       \"        (0): Upsample(\\n\",\n-       \"          (upsample_block): Sequential(\\n\",\n-       \"            (0): Upsample(scale_factor=1.0, mode='bilinear')\\n\",\n-       \"            (1): ReflectionPad2d((1, 1, 1, 1))\\n\",\n-       \"            (2): Conv2d(384, 384, kernel_size=(3, 3), stride=(1, 1), bias=False)\\n\",\n-       \"            (3): LayerNorm()\\n\",\n-       \"            (4): GELU(approximate='none')\\n\",\n-       \"          )\\n\",\n-       \"        )\\n\",\n-       \"      )\\n\",\n-       \"      (linear): Linear(in_features=384, out_features=97, bias=True)\\n\",\n-       \"    )\\n\",\n-       \"  )\\n\",\n-       \"  (augmenter): Augmenter(augs=['Identity'], probs=tensor([1.]))\\n\",\n-       \"  (rgb2yuv): RGB2YUV()\\n\",\n-       \"  (blender): Blender()\\n\",\n-       \")\"\n-      ]\n-     },\n-     \"execution_count\": 4,\n-     \"metadata\": {},\n-     \"output_type\": \"execute_result\"\n-    }\n-
…
