…
\"output_type\": \"stream\",\n-     \"text\": [\n-      \"INFO:recommenders.models.wide_deep.wide_deep_utils:Epoch 21/21 – loss = 0.8319\\n\"\n-     ]\n-    },\n     {\n      \"name\": \"stdout\",\n      \"output_type\": \"stream\",\n      \"text\": [\n-      \"CPU times: user 10min 23s, sys: 1min 35s, total: 11min 59s\\n\",\n-      \"Wall time: 11min 41s\\n\"\n+      \"CPU times: user 10min 36s, sys: 1min 39s, total: 12min 15s\\n\",\n+      \"Wall time: 11min 59s\\n\"\n      ]\n-    },\n-    {\n-     \"data\": {\n-      \"text/plain\": [\n-       \"WideDeepModel(\\n\",\n-       \"  (wide_user): Embedding(943, 1)\\n\",\n-       \"  (wide_item): Embedding(1682, 1)\\n\",\n-       \"  (wide_cross): Embedding(1000, 1)\\n\",\n-       \"  (deep_user): Embedding(943, 32, max_norm=5.656854249492381)\\n\",\n-       \"  (deep_item): Embedding(1682, 16, max_norm=4.0)\\n\",\n-       \"  (dnn): Sequential(\\n\",\n-       \"    (0): Linear(in_features=67, out_features=64, bias=True)\\n\",\n-       \"    (1): ReLU()\\n\",\n-       \"    (2): BatchNorm1d(64, eps=1e-05, momentum=0.1, affine=True, track_running_stats=True)\\n\",\n-       \"    (3): Dropout(p=0.8, inplace=False)\\n\",\n-       \"    (4): Linear(in_features=64, out_features=128, bias=True)\\n\",\n-       \"    (5): ReLU()\\n\",\n-       \"    (6): BatchNorm1d(128, eps=1e-05, momentum=0.1, affine=True, track_running_stats=True)\\n\",\n-       \"    (7): Dropout(p=0.8, inplace=False)\\n\",\n-       \"    (8): Linear(in_features=128, out_features=512, bias=True)\\n\",\n-       \"    (9): ReLU()\\n\",\n-       \"    (10): BatchNorm1d(512, eps=1e-05, momentum=0.1, affine=True, track_running_stats=True)\\n\",\n-       \"    (11): Dropout(p=0.8, inplace=False)\\n\",\n-       \"    (12): Linear(in_features=512, out_features=1, bias=True)\\n\",\n-       \"  )\\n\",\n-       \")\"\n-      ]\n-     },\n-     \"execution_count\": 11,\n-     \"metadata\": {},\n-     \"output_type\": \"execute_result\"\n     }\n    ],\n    \"source\": [\n@@ -1185,20 +1228,20 @@\n   },\n   {\n    \"cell_type\": \"code\",\n-   \"execution_count\": 12,\n+   \"execution_count\": 11,\n    \"id\": \"cdc6e593\",\n   
…
   \"output_type\": \"stream\",\n+     \"text\": [\n+      \"INFO:recommenders.models.wide_deep.wide_deep_utils:Epoch 21/21 – loss = 0.8319\\n\"\n      ]\n     },\n     {\n      \"name\": \"stdout\",\n      \"output_type\": \"stream\",\n      \"text\": [\n-      \"CPU times: user 8min 19s, sys: 1min 18s, total: 9min 38s\\n\",\n-      \"Wall time: 9min 21s\\n\"\n+      \"CPU times: user 10min 23s, sys: 1min 35s, total: 11min 59s\\n\",\n+      \"Wall time: 11min 41s\\n\"\n      ]\n+    },\n+    {\n+     \"data\": {\n+      \"text/plain\": [\n+       \"WideDeepModel(\\n\",\n+       \"  (wide_user): Embedding(943, 1)\\n\",\n+       \"  (wide_item): Embedding(1682, 1)\\n\",\n+       \"  (wide_cross): Embedding(1000, 1)\\n\",\n+       \"  (deep_user): Embedding(943, 32, max_norm=5.656854249492381)\\n\",\n+       \"  (deep_item): Embedding(1682, 16, max_norm=4.0)\\n\",\n+       \"  (dnn): Sequential(\\n\",\n+       \"    (0): Linear(in_features=67, out_features=64, bias=True)\\n\",\n+       \"    (1): ReLU()\\n\",\n+       \"    (2): BatchNorm1d(64, eps=1e-05, momentum=0.1, affine=True, track_running_stats=True)\\n\",\n+       \"    (3): Dropout(p=0.8, inplace=False)\\n\",\n+       \"    (4): Linear(in_features=64, out_features=128, bias=True)\\n\",\n+       \"    (5): ReLU()\\n\",\n+       \"    (6): BatchNorm1d(128, eps=1e-05, momentum=0.1, affine=True, track_running_stats=True)\\n\",\n+       \"    (7): Dropout(p=0.8, inplace=False)\\n\",\n+       \"    (8): Linear(in_features=128, out_features=512, bias=True)\\n\",\n+       \"    (9): ReLU()\\n\",\n+       \"    (10): BatchNorm1d(512, eps=1e-05, momentum=0.1, affine=True, track_running_stats=True)\\n\",\n+       \"    (11): Dropout(p=0.8, inplace=False)\\n\",\n+       \"    (12): Linear(in_features=512, out_features=1, bias=True)\\n\",\n+       \"  )\\n\",\n+       \")\"\n+      ]\n+     },\n+     \"execution_count\": 11,\n+     \"metadata\": {},\n+     \"output_type\": \"execute_result\"\n     }\n    ],\n    \"source\": [\n     \"%%time\\n\",\n-    \"print(\\n\",\n-    \"    \\\"Training steps = {}, Batch size = {} (num epochs ~ {})\\\"\\n\",\n-    \"    .format(STEPS, BATCH_SIZ
…
n     {\n      \"name\": \"stdout\",\n@@ -518,8 +635,15 @@\n   },\n   {\n    \"cell_type\": \"code\",\n-   \"execution_count\": 8,\n-   \"metadata\": {},\n+   \"execution_count\": 9,\n+   \"metadata\": {\n+    \"execution\": {\n+     \"iopub.execute_input\": \"2026-02-09T17:52:41.535303Z\",\n+     \"iopub.status.busy\": \"2026-02-09T17:52:41.534930Z\",\n+     \"iopub.status.idle\": \"2026-02-09T17:52:41.584520Z\",\n+     \"shell.execute_reply\": \"2026-02-09T17:52:41.581397Z\"\n+    }\n+   },\n    \"outputs\": [\n     {\n      \"name\": \"stdout\",\n@@ -533,16 +657,16 @@\n       \"  (deep_item): Embedding(1682, 16, max_norm=4.0)\\n\",\n       \"  (dnn): Sequential(\\n\",\n       \"    (0): Linear(in_features=67, out_features=64, bias=True)\\n\",\n-      \"    (1): BatchNorm1d(64, eps=1e-05, momentum=0.1, affine=True, track_running_stats=True)\\n\",\n-      \"    (2): ReLU()\\n\",\n+      \"    (1): ReLU()\\n\",\n+      \"    (2): BatchNorm1d(64, eps=1e-05, momentum=0.1, affine=True, track_running_stats=True)\\n\",\n       \"    (3): Dropout(p=0.8, inplace=False)\\n\",\n       \"    (4): Linear(in_features=64, out_features=128, bias=True)\\n\",\n-      \"    (5): BatchNorm1d(128, eps=1e-05, momentum=0.1, affine=True, track_running_stats=True)\\n\",\n-      \"    (6): ReLU()\\n\",\n+      \"    (5): ReLU()\\n\",\n+      \"    (6): BatchNorm1d(128, eps=1e-05, momentum=0.1, affine=True, track_running_stats=True)\\n\",\n       \"    (7): Dropout(p=0.8, inplace=False)\\n\",\n       \"    (8): Linear(in_features=128, out_features=512, bias=True)\\n\",\n-      \"    (9): BatchNorm1d(512, eps=1e-05, momentum=0.1, affine=True, track_running_stats=True)\\n\",\n-      \"    (10): ReLU()\\n\",\n+      \"    (9): ReLU()\\n\",\n+      \"    (10): BatchNorm1d(512, eps=1e-05, momentum=0.1, affine=True, track_running_stats=True)\\n\",\n       \"    (11): Dropout(p=0.8, inplace=False)\\n\",\n       \"    (12): Linear(in_features=512, out_features=1, bias=True)\\n\",\n       \"  )\\n\",\n@@ -576,8 +700,15 @@\n   },\n   {\n    \"cell_type\": \"code\",\n-   \"execution_count\": 9,\n-   \"metadata\": {},\n+   \"execution_count\": 10,\n+   \"metadata\": {\n+    \"execution\": {\n+     \"iopub.execute_input\": \"2026-02-09T17:52:41.589388Z\",\n+     \"iopub.status.busy\": \"2026-02-09T17:52:41.588881Z\",\n+     \"io
…
im': 32, 'item_dim': 16, 'item_feat_col': 'genre', 'item_feat_shape': 19}\\n\"\n+     ]\n+    }\n+   ],\n    \"source\": [\n     \"# Define wide (linear) and deep (dnn) feature configurations\\n\",\n     \"wide_columns, deep_columns = build_feature_columns(\\n\",\n@@ -273,9 +486,38 @@\n   },\n   {\n    \"cell_type\": \"code\",\n-   \"execution_count\": null,\n+   \"execution_count\": 9,\n    \"metadata\": {},\n-   \"outputs\": [],\n+   \"outputs\": [\n+    {\n+     \"name\": \"stdout\",\n+     \"output_type\": \"stream\",\n+     \"text\": [\n+      \"WideDeepModel(\\n\",\n+      \"  (wide_user): Embedding(943, 1)\\n\",\n+      \"  (wide_item): Embedding(1682, 1)\\n\",\n+      \"  (wide_cross): Embedding(1000, 1)\\n\",\n+      \"  (deep_user): Embedding(943, 32, max_norm=5.656854249492381)\\n\",\n+      \"  (deep_item): Embedding(1682, 16, max_norm=4.0)\\n\",\n+      \"  (dnn): Sequential(\\n\",\n+      \"    (0): Linear(in_features=67, out_features=64, bias=True)\\n\",\n+      \"    (1): BatchNorm1d(64, eps=1e-05, momentum=0.1, affine=True, track_running_stats=True)\\n\",\n+      \"    (2): ReLU()\\n\",\n+      \"    (3): Dropout(p=0.8, inplace=False)\\n\",\n+      \"    (4): Linear(in_features=64, out_features=128, bias=True)\\n\",\n+      \"    (5): BatchNorm1d(128, eps=1e-05, momentum=0.1, affine=True, track_running_stats=True)\\n\",\n+      \"    (6): ReLU()\\n\",\n+      \"    (7): Dropout(p=0.8, inplace=False)\\n\",\n+      \"    (8): Linear(in_features=128, out_features=512, bias=True)\\n\",\n+      \"    (9): BatchNorm1d(512, eps=1e-05, momentum=0.1, affine=True, track_running_stats=True)\\n\",\n+      \"    (10): ReLU()\\n\",\n+      \"    (11): Dropout(p=0.8, inplace=False)\\n\",\n+      \"    (12): Linear(in_features=512, out_features=1, bias=True)\\n\",\n+      \"  )\\n\",\n+      \")\\n\"\n+     ]\n+    }\n+   ],\n    \"source\": [\n     \"# Build the model\\n\",\n     \"model = build_model(\\n\",\n@@ -302,7 +544,7 @@\n   },\n   {\n    \"cell_type\": \"code\",\n-   \"execution_count\": null,\n+   \"execution_count\": 10,\n    \"metadata\": {},\n    \"outputs\": [],\n    \"source\": [\n@@ -327,7 +
…
