…
sing [1024, 1024, 1024, 1024, 1024, 1024, 1024, 1024, 1024, 1024, 1024, 1024, 1024, 1024, 1024, 1024, 1024, 1024, 1024, 1024, 1024, 1024, 1024, 1024] instead\\n\",\n+            \"Backbone does not define input_pad_size, using patch_size=16 instead\\n\"\n+          ]\n+        },\n+        {\n+          \"data\": {\n+            \"text/plain\": [\n+              \"Depther(\\n\",\n+              \"  (encoder): DinoVisionTransformerWrapper(\\n\",\n+              \"    (backbone): DinoVisionTransformer(\\n\",\n+              \"      (patch_embed): PatchEmbed(\\n\",\n+              \"        (proj): Conv2d(3, 1024, kernel_size=(16, 16), stride=(16, 16))\\n\",\n+              \"        (norm): Identity()\\n\",\n+              \"      )\\n\",\n+              \"      (rope_embed): RopePositionEmbedding()\\n\",\n+              \"      (blocks): ModuleList(\\n\",\n+              \"        (0-23): 24 x SelfAttentionBlock(\\n\",\n+              \"          (norm1): LayerNorm((1024,), eps=1e-05, elementwise_affine=True)\\n\",\n+              \"          (attn): SelfAttention(\\n\",\n+              \"            (qkv): LinearKMaskedBias(in_features=1024, out_features=3072, bias=True)\\n\",\n+              \"            (attn_drop): Dropout(p=0.0, inplace=False)\\n\",\n+              \"            (proj): Linear(in_features=1024, out_features=1024, bias=True)\\n\",\n+              \"            (proj_drop): Dropout(p=0.0, inplace=False)\\n\",\n+              \"          )\\n\",\n+              \"          (ls1): LayerScale()\\n\",\n+              \"          (norm2): LayerNorm((1024,), eps=1e-05, elementwise_affine=True)\\n\",\n+              \"          (mlp): Mlp(\\n\",\n+              \"            (fc1): Linear(in_features=1024, out_features=4096, bias=True)\\n\",\n+              \"            (act): GELU(approximate='none')\\n\",\n+              \"            (fc2): Linear(in_features=4096, out_features=1024, bias=True)\\n\",\n+              \"            (drop): Dropout(p=0.0, inplace=False)\\n\",\n+              \"          )\\n\",\n+              \"          (ls2): LayerScale()\\n\",\n+              \"        )\\n\",\n+              \"      )\\n\",\n+              \"      (norm): LayerNorm((1024,), eps=1e-05, elementwise_affine=True)\\n\",\n+              \"      (local_cls_norm): LayerNorm((1024,), eps=1e-05, elementwise_affine=True)\\n\",\n+              \"      (head): Identity()\\n\",\n+              \"    )\\n\",\n+              \"    (patch_size_adapter): CenterPadding()\\n\",\n+              \"  )\\n\",\n+              \"  (decoder): CHMv2Head(\\n\",\n+              \"    (reassemble_blocks): ReassembleBlocks(\\n\",\n+              \"      (projects): ModuleList(\\n\",\n+              \"        (0): ConvModule(\\n\",\n+              \"          (conv): Conv2d(1024, 128, kernel_size=(1, 1), stride=(1, 1))\\n\",\n+              \"        )\\n\",\n+              \"        (1): ConvModule(\\n\",\n+              \"          (conv): Conv2d(1024, 256, kernel_size=(1, 1), stride=(1, 1))\\n\",\n+              \"        )\\n\",\n+              \"        (2): ConvModule(\\n\",\n+              \"          (conv): Conv2d(1024, 512, kernel_size=(1, 1), stride=(1, 1))\\n\",\n+              \"        )\\n\",\n+              \"        (3): ConvModule(\\n\",\n+              \"          (conv): Conv2d(1024, 1024, kernel_size=(1, 1), stride=(1, 1))\\n\",\n+              \"        )\\n\",\n+              \"      )\\n\",\n+              \"      (resize_layers): ModuleList(\\n\",\n+              \"        (0): ConvTranspose2d(128, 128, kernel_size=(4, 4), stride=(4, 4))\\n\",\n+              \"        (1): ConvTranspose2d(256, 256, kernel_size=(2, 2), stride=(2, 2))\\n\",\n+              \"        (2): Identity()\\n\",\n+              \"        (3): Conv2d(1024, 1024, kernel_size=(3, 3), stride=(2, 2), padding=(1, 1))\\n\",\n+              \"      )\\n\",\n+              \"      (readout_projects): ModuleList(\\n\",\n+              \"        (0-3): 4 x Sequential(\\n\",\n+              \"          (0): Linear(in_features=2048, out_features=1024, bias=True)\\n\",\n+              \"          (1): GELU(approximate='none')\\n\",\n+              \"        )\\n\",\n+              \"      )\\n\",\n+              \"      (batchnorm_layers): ModuleList(\\n\",\n+              \"        (0-3): 4 x Identity()\\n\",\n+              \"      )\\n\",\n+              \"    )\\n\",\n+              \"    (convs): ModuleList(\\n\",\n+              \"      (0): ConvModule(\\n\",\n+              \"        (conv): Conv2d(128, 256, kernel_size=(3, 3), stride=(1, 1), padding=(1, 1), bias=False)\\n\",\n+              \"      )\\n\",\n+              \"      (1): ConvModule(\\n\",\n+              \"        (conv): Conv2d(256, 256, kernel_size=(3, 3), stride=(1, 1), padding=(1, 1), bias=False)\\n\",\n+              \"      )\\n\",\n+              \"      (2): ConvModule(\\n\",\n+              \"        (conv): Conv2d(512, 256, kernel_size=(3, 3), stride=(1, 1), padding=(1, 1), bias=False)\\n\",\n+              \"      )\\n\",\n+              \"      (3): ConvModule(\\n\",\n+              \"        (conv): Conv2d(1024, 256, kernel_size=(3, 3), stride=(1, 1), padding=(1, 1), bias=False)\\n\",\n+              \"      )\\n\",\n+              \"    )\\n\",\n+              \"    (fusion_blocks): ModuleList(\\n\",\n+              \"      (0): FeatureFusionBlock(\\n\",\n+              \"        (project): ConvModule(\\n\",\n+              \"          (conv): Conv2d(256, 256, kernel_size=(1, 1), stride=(1, 1))\\n\",\n+              \"        )\\n\",\n+              \"        (res_conv_unit1): None\\n\",\n+              \"        (res_conv_unit2): PreActResidualConvUnit(\\n\",\n+              \"          (conv1): ConvModule(\\n\",\n+              \"            (conv): Conv2d(256, 256, kernel_size=(3, 3), stride=(1, 1), padding=(1, 1))\\n\",\n+              \"            (activate): ReLU()\\n\",\n+              \"          )\\n\",\n+              \"          (conv2): ConvModule(\\n\",\n+              \"            (conv): Conv2d(256, 256, kernel_size=(3, 3), stride=(1, 1), padding=(1, 1))\\n\",\n+              \"            (activate): ReLU()\\n\",\n+              \"          )\\n\",\n+              \"        )\\n\",\n+              \"      )\\n\",\n+              \"      (1-3): 3 x FeatureFusionBlock(\\n\",\n+              \"        (project): ConvModule(\\n\",\n+              \"          (conv): Conv2d(256, 256, kernel_size=(1, 1), stride=(1, 1))\\n\",\n+              \"        )\\n\",\n+              \"        (res_conv_unit1): PreActResidualConvUnit(\\n\",\n+              \"          (conv1): ConvModule(\\n\",\n+              \"            (conv): Conv2d(256, 256, kernel_size=(3, 3), stride=(1, 1), padding=(1, 1))\\n\",\n+              \"            (activate): ReLU()\\n\",\n+              \"          )\\n\",\n+              \"          (conv2): ConvModule(\\n\",\n+              \"            (conv): Conv2d(256, 256, kernel_size=(3, 3), stride=(1, 1), padding=(1, 1))\\n\",\n+              \"            (activate): ReLU()\\n\",\n+              \"          )\\n\",\n+              \"        )\\n\",\n+              \"        (res_conv_unit2): PreActResidualConvUnit(\\n\",\n+              \"          (conv1): ConvModule(\\n\",\n+              \"            (conv): Conv2d(256, 256, kernel_size=(3, 3), stride=(1, 1), padding=(1, 1))\\n\",\n+              \"            (activate): ReLU()\\n\",\n+              \"          )\\n\",\n+              \"          (conv2): ConvModule(\\n\",\n+              \"            (conv): Conv2d(256, 256, kernel_size=(3, 3), stride=(1, 1), padding=(1, 1))\\n\",\n+              \"            (activate): ReLU()\\n\",\n+              \"          )\\n\",\n+              \"        )\\n\",\n+              \"      )\\n\",\n+              \"    )\\n\",\n+              \"    (conv_depth): UpConvHeadCHMv2(\\n\",\n+              \"      (head): Sequential(\\n\",\n+              \"        (0): Conv2d(256, 128, kernel_size=(3, 3), stride=(1, 1), padding=(1, 1))\\n\",\n+              \"        (1): Interpolate()\\n\",\n+              \"        (2): Conv2d(128, 128, kernel_size=(3, 3), stride=(1, 1), padding=(1, 1))\\n\",\n+              \"        (3): ReLU()\\n\",\n+              \"        (4): Conv2d(128, 256, kernel_size=(1, 1), stride=(1, 1))\\n\",\n+              \"      )\\n\",\n+              \"    )\\n\",\n+              \"  )\\n\",\n+              \"  (features_to_depth): FeaturesToDepth()\\n\",\n+              \")\"\n+            ]\n+          },\n+          \"execution_count\": 3,\n+          \"metadata\": {},\n+          \"output_type\": \"execute_result\"\n+        }\n+      ],\n+  
…
