…
ame: \"cpnv2/relu\"\n+  name: \"conv2/relu\"\n   type: \"ReLU\"\n   bottom: \"conv2/5x5_s1\"\n   top: \"conv2/5x5_s1\"\n@@ -216,146 +226,222 @@ layer {\n     stride: 2\n   }\n }\n-I0417 00:33:35.743963 28762 net.cpp:340] Input 0 -> data\n-I0417 00:33:35.743993 28762 layer_factory.hpp:74] Creating layer conv1\n-I0417 00:33:35.744009 28762 net.cpp:84] Creating Layer conv1\n-I0417 00:33:35.744014 28762 net.cpp:380] conv1 <- data\n-I0417 00:33:35.744020 28762 net.cpp:338] conv1 -> conv1/11x11_s4\n-I0417 00:33:35.744029 28762 net.cpp:113] Setting up conv1\n-I0417 00:33:35.744531 28762 net.cpp:120] Top shape: 128 64 55 55 (24780800)\n-I0417 00:33:35.744545 28762 layer_factory.hpp:74] Creating layer conv1/relu\n-I0417 00:33:35.744552 28762 net.cpp:84] Creating Layer conv1/relu\n-I0417 00:33:35.744555 28762 net.cpp:380] conv1/relu <- conv1/11x11_s4\n-I0417 00:33:35.744560 28762 net.cpp:327] conv1/relu -> conv1/11x11_s4 (in-place)\n-I0417 00:33:35.744565 28762 net.cpp:113] Setting up conv1/relu\n-I0417 00:33:35.744573 28762 net.cpp:120] Top shape: 128 64 55 55 (24780800)\n-I0417 00:33:35.744577 28762 layer_factory.hpp:74] Creating layer pool1/3x3_s2\n-I0417 00:33:35.744582 28762 net.cpp:84] Creating Layer pool1/3x3_s2\n-I0417 00:33:35.744585 28762 net.cpp:380] pool1/3x3_s2 <- conv1/11x11_s4\n-I0417 00:33:35.744588 28762 net.cpp:338] pool1/3x3_s2 -> pool1/3x3_s2\n-I0417 00:33:35.744595 28762 net.cpp:113] Setting up pool1/3x3_s2\n-I0417 00:33:35.744606 28762 net.cpp:120] Top shape: 128 64 27 27 (5971968)\n-I0417 00:33:35.744609 28762 layer_factory.hpp:74] Creating layer conv2/5x5_s1\n-I0417 00:33:35.744614 28762 net.cpp:84] Creating Layer conv2/5x5_s1\n-I0417 00:33:35.744617 28762 net.cpp:380] conv2/5x5_s1 <- pool1/3x3_s2\n-I0417 00:33:35.744704 28762 net.cpp:338] conv2/5x5_s1 -> conv2/5x5_s1\n-I0417 00:33:35.744714 28762 net.cpp:113] Setting up conv2/5x5_s1\n-I0417 00:33:35.746635 28762 net.cpp:120] Top shape: 128 192 27 27 (17915904)\n-I0417 00:33:35.746646 28762 layer_factory.hpp:74] Creating layer cpnv2/relu\n-I0417 00:33:35.746651 28762 net.cpp:84] Creating Layer cpnv2/relu\n-I0417 00:33:35.746655 28762 net.cpp:380] cpnv2/relu <- conv2/5x5_s1\n-I0417 00:33:35.746659 28762 net.cpp:327] cpnv2/relu -> conv2/5x5_s1 (in-place)\n-I0417 00:33:35.746664 28762 net.cpp:113] Setting up cpnv2/relu\n-I0417 00:33:35.746669 28762 net.cpp:120] Top shape: 128 192 27 27 (17915904)\n-I0417 00:33:35.746671 28762 layer_factory.hpp:74] Creating layer pool2/3x3_s2\n-I0417 00:33:35.746675 28762 net.cpp:84] Creating Layer pool2/3x3_s2\n-I0417 00:33:35.746678 28762 net.cpp:380] pool2/3x3_s2 <- conv2/5x5_s1\n-I0417 00:33:35.746683 28762 net.cpp:338] pool2/3x3_s2 -> pool2/3x3_s2\n-I0417 00:33:35.746688 28762 net.cpp:113] Setting up pool2/3x3_s2\n-I0417 00:33:35.746695 28762 net.cpp:120] Top shape: 128 192 13 13 (4153344)\n-I0417 00:33:35.746697 28762 layer_factory.hpp:74] Creating layer conv3/3x3_s1\n-I0417 00:33:35.746702 28762 net.cpp:84] Creating Layer conv3/3x3_s1\n-I0417 00:33:35.746706 28762 net.cpp:380] conv3/3x3_s1 <- pool2/3x3_s2\n-I0417 00:33:35.746709 28762 net.cpp:338] conv3/3x3_s1 -> conv3/3x3_s1\n-I0417 00:33:35.746714 28762 net.cpp:113] Setting up conv3/3x3_s1\n-I0417 00:33:35.750685 28762 net.cpp:120] Top shape: 128 384 13 13 (8306688)\n-I0417 00:33:35.750696 28762 layer_factory.hpp:74] Creating layer conv3/relu\n-I0417 00:33:35.750701 28762 net.cpp:84] Creating Layer conv3/relu\n-I0417 00:33:35.750705 28762 net.cpp:380] conv3/relu <- conv3/3x3_s1\n-I0417 00:33:35.750708 28762 net.cpp:327] conv3/relu -> conv3/3x3_s1 (in-place)\n-I0417 00:33:35.750713 28762 net.cpp:113] Setting up conv3/relu\n-I0417 00:33:35.750717 28762 net.cpp:120] Top shape: 128 384 13 13 (8306688)\n-I0417 00:33:35.750720 28762 layer_factory.hpp:74] Creating layer conv4/3x3_s1\n-I0417 00:33:35.750725 28762 net.cpp:84] Creating Layer conv4/3x3_s1\n-I0417 00:33:35.750728 28762 net.cpp:380] conv4/3x3_s1 <- conv3/3x3_s1\n-I0417 00:33:35.750733 28762 net.cpp:338] conv4/3x3_s1 -> conv4/3x3_s1\n-I0417 00:33:35.750738 28762 net.cpp:113] Setting up conv4/3x3_s1\n-I0417 00:33:35.755753 28762 net.cpp:120] Top shape: 128 256 13 13 (5537792)\n-I0417 00:33:35.755763 28762 layer_factory.hpp:74] Creating layer conv4/relu\n-I0417 00:33:35.755767 28762 net.cpp:84] Creating Layer conv4/relu\n-I0417 00:33:35.755770 28762 net.cpp:380] conv4/relu <- conv4/3x3_s1\n-I0417 00:33:35.755774 28762 net.cpp:327] conv4/relu -> conv4/3x3_s1 (in-place)\n-I0417 00:33:35.755779 28762 net.cpp:113] Setting up conv4/relu\n-I0417 00:33:35.755784 28762 net.cpp:120] Top shape: 128 256 13 13 (5537792)\n-I0417 00:33:35.755786 28762 layer_factory.hpp:74] Creating layer conv5/3x3_s1\n-I0417 00:33:35.755791 28762 net.cpp:84] Creating Layer conv5/3x3_s1\n-I0417 00:33:35.755800 28762 net.cpp:380] conv5/3x3_s1 <- conv4/3x3_s1\n-I0417 00:33:35.755805 28762 net.cpp:338] conv5/3x3_s1 -> conv5/3x3_s1\n-I0417 00:33:35.755810 28762 net.cpp:113] Setting up conv5/3x3_s1\n-I0417 00:33:35.759330 28762 net.cpp:120] Top shape: 128 256 13 13 (5537792)\n-I0417 00:33:35.759341 28762 layer_factory.hpp:74] Creating layer conv5/relu\n-I0417 00:33:35.759344 28762 net.cpp:84] Creating Layer conv5/relu\n-I0417 00:33:35.759347 28762 net.cpp:380] conv5/relu <- conv5/3x3_s1\n-I0417 00:33:35.759351 28762 net.cpp:327] conv5/relu -> conv5/3x3_s1 (in-place)\n-I0417 00:33:35.759356 28762 net.cpp:113] Setting up conv5/relu\n-I0417 00:33:35.759361 28762 net.cpp:120] Top shape: 128 256 13 13 (5537792)\n-I0417 00:33:35.759363 28762 layer_factory.hpp:74] Creating layer pool5/3x3_s2\n-I0417 00:33:35.759367 28762 net.cpp:84] Creating Layer pool5/3x3_s2\n-I0417 00:33:35.759371 28762 net.cpp:380] pool5/3x3_s2 <- conv5/3x3_s1\n-I0417 00:33:35.759374 28762 net.cpp:338] pool5/3x3_s2 -> pool5/3x3_s2\n-I0417 00:33:35.759379 28762 net.cpp:113] Setting up pool5/3x3_s2\n-I0417 00:33:35.759385 28762 net.cpp:120] Top shape: 128 256 6 6 (1179648)\n-I0417 00:33:35.759388 28762 net.cpp:169] pool5/3x3_s2 does not need backward computation.\n-I0417 00:33:35.759392 28762 net.cpp:169] conv5/relu does not need backward computation.\n-I0417 00:33:35.759394 28762 net.cpp:169] conv5/3x3_s1 does not need backward computation.\n-I0417 00:33:35.759397 28762 net.cpp:169] conv4/relu does not need backward computation.\n-I0417 00:33:3
…
}\n+layer {\n+  name: \"fc7\"\n+  type: \"InnerProduct\"\n+  bottom: \"fc6\"\n+  top: \"fc7\"\n+  inner_product_param {\n+    num_output: 4096\n+  }\n+}\n+layer {\n+  name: \"fc8\"\n+  type: \"InnerProduct\"\n+  bottom: \"fc7\"\n+  top: \"fc8\"\n+  inner_product_param {\n+    num_output: 1000\n+  }\n+}\n+I0228 23:01:59.106274 24487 layer_factory.hpp:77] Creating layer input\n+I0228 23:01:59.106305 24487 net.cpp:91] Creating Layer input\n+I0228 23:01:59.106310 24487 net.cpp:399] input -> data\n+I0228 23:01:59.112552 24487 net.cpp:141] Setting up input\n+I0228 23:01:59.112576 24487 net.cpp:148] Top shape: 128 3 224 224 (19267584)\n+I0228 23:01:59.112578 24487 net.cpp:156] Memory required for data: 77070336\n+I0228 23:01:59.112586 24487 layer_factory.hpp:77] Creating layer conv1\n+I0228 23:01:59.112601 24487 net.cpp:91] Creating Layer conv1\n+I0228 23:01:59.112606 24487 net.cpp:425] conv1 <- data\n+I0228 23:01:59.112612 24487 net.cpp:399] conv1 -> conv1/11x11_s4\n+I0228 23:01:59.254693 24487 net.cpp:141] Setting up conv1\n+I0228 23:01:59.254719 24487 net.cpp:148] Top shape: 128 64 55 55 (24780800)\n+I0228 23:01:59.254722 24487 net.cpp:156] Memory required for data: 176193536\n+I0228 23:01:59.254739 24487 layer_factory.hpp:77] Creating layer conv1/relu\n+I0228 23:01:59.254748 24487 net.cpp:91] Creating Layer conv1/relu\n+I0228 23:01:59.254753 24487 net.cpp:425] conv1/relu <- conv1/11x11_s4\n+I0228 23:01:59.254757 24487 net.cpp:386] conv1/relu -> conv1/11x11_s4 (in-place)\n+I0228 23:01:59.255596 24487 net.cpp:141] Setting up conv1/relu\n+I0228 23:01:59.255606 24487 net.cpp:148] Top shape: 128 64 55 55 (24780800)\n+I0228 23:01:59.255609 24487 net.cpp:156] Memory required for data: 275316736\n+I0228 23:01:59.255612 24487 layer_factory.hpp:77] Creating layer pool1/3x3_s2\n+I0228 23:01:59.255620 24487 net.cpp:91] Creating Layer pool1/3x3_s2\n+I0228 23:01:59.255622 24487 net.cpp:425] pool1/3x3_s2 <- conv1/11x11_s4\n+I0228 23:01:59.255626 24487 net.cpp:399] pool1/3x3_s2 -> pool1/3x3_s2\n+I0228 23:01:59.255674 24487 net.cpp:141] Setting up pool1/3x3_s2\n+I0228 23:01:59.255679 24487 net.cpp:148] Top shape: 128 64 27 27 (5971968)\n+I0228 23:01:59.255682 24487 net.cpp:156] Memory required for data: 299204608\n+I0228 23:01:59.255686 24487 layer_factory.hpp:77] Creating layer conv2/5x5_s1\n+I0228 23:01:59.255695 24487 net.cpp:91] Creating Layer conv2/5x5_s1\n+I0228 23:01:59.255698 24487 net.cpp:425] conv2/5x5_s1 <- pool1/3x3_s2\n+I0228 23:01:59.255702 24487 net.cpp:399] conv2/5x5_s1 -> conv2/5x5_s1\n+I0228 23:01:59.259663 24487 net.cpp:141] Setting up conv2/5x5_s1\n+I0228 23:01:59.259675 24487 net.cpp:148] Top shape: 128 192 27 27 (17915904)\n+I0228 23:01:59.259680 24487 net.cpp:156] Memory required for data: 370868224\n+I0228 23:01:59.259687 24487 layer_factory.hpp:77] Creating layer conv2/relu\n+I0228 23:01:59.259692 24487 net.cpp:91] Creating Layer conv2/relu\n+I0228 23:01:59.259696 24487 net.cpp:425] conv2/relu <- conv2/5x5_s1\n+I0228 23:01:59.259699 24487 net.cpp:386] conv2/relu -> conv2/5x5_s1 (in-place)\n+I0228 23:01:59.260179 24487 net.cpp:141] Setting up conv2/relu\n+I0228 23:01:59.260190 24487 net.cpp:148] Top shape: 128 192 27 27 (17915904)\n+I0228 23:01:59.260192 24487 net.cpp:156] Memory required for data: 442531840\n+I0228 23:01:59.260195 24487 layer_factory.hpp:77] Creating layer pool2/3x3_s2\n+I0228 23:01:59.260201 24487 net.cpp:91] Creating Layer pool2/3x3_s2\n+I0228 23:01:59.260205 24487 net.cpp:425] pool2/3x3_s2 <- conv2/5x5_s1\n+I0228 23:01:59.260208 24487 net.cpp:399] pool2/3x3_s2 -> pool2/3x3_s2\n+I0228 23:01:59.260239 24487 net.cpp:141] Setting up pool2/3x3_s2\n+I0228 23:01:59.260244 24487 net.cpp:148] Top shape: 128 192 13 13 (4153344)\n+I0228 23:01:59.260247 24487 net.cpp:156] Memory required for data: 459145216\n+I0228 23:01:59.260251 24487 layer_factory.hpp:77] Creating layer conv3/3x3_s1\n+I0228 23:01:59.260257 24487 net.cpp:91] Creating Layer conv3/3x3_s1\n+I0228 23:01:59.260260 24487 net.cpp:425] conv3/3x3_s1 <- pool2/3x3_s2\n+I0228 23:01:59.260264 24487 net.cpp:399] conv3/3x3_s1 -> conv3/3x3_s1\n+I0228 23:01:59.267001 24487 net.cpp:141] Setting up conv3/3x3_s1\n+I0228 23:01:59.267020 24487 net.cpp:148] Top shape: 128 384 13 13 (8306688)\n+I0228 23:01:59.267024 24487 net.cpp:156] Memory required for data: 492371968\n+I0228 23:01:59.267031 24487 layer_factory.hpp:77] Creating layer conv3/relu\n+I0228 23:01:59.267038 24487 net.cpp:91] Creating Layer conv3/relu\n+I0228 23:01:59.267041 24487 net.cpp:425] conv3/relu <- conv3/3x3_s1\n+I0228 23:01:59.267045 24487 net.cpp:386] conv3/relu -> conv3/3x3_s1 (in-place)\n+I0228 23:01:59.267168 24487 net.cpp:141] Setting up conv3/relu\n+I0228 23:01:59.267175 24487 net.cpp:148] Top shape: 128 384 13 13 (8306688)\n+I0228 23:01:59.267179 24487 net.cpp:156] Memory required for data: 525598720\n+I0228 23:01:59.267181 24487 layer_factory.hpp:77] Creating layer conv4/3x3_s1\n+I0228 23:01:59.267189 24487 net.cpp:91] Creating Layer conv4/3x3_s1\n+I0228 23:01:59.267192 24487 net.cpp:425] conv4/3x3_s1 <- conv3/3x3_s1\n+I0228 23:01:59.267196 24487 net.cpp:399] conv4/3x3_s1 -> conv4/3x3_s1\n+I0228 23:01:59.274763 24487 net.cpp:141] Setting up conv4/3x3_s1\n+I0228 23:01:59.274775 24487 net.cpp:148] Top shape: 128 256 13 13 (5537792)\n+I0228 23:01:59.274778 24487 net.cpp:156] Memory required for data: 547749888\n+I0228 23:01:59.274783 24487 layer_factory.hpp:77] Creating layer conv4/relu\n+I0228 23:01:59.274790 24487 net.cpp:91] Creating Layer conv4/relu\n+I0228 23:01:59.274792 24487 net.cpp:425] conv4/relu <- conv4/3x3_s1\n+I0228 23:01:59.274797 24487 net.cpp:386] conv4/relu -> conv4/3x3_s1 (in-place)\n+I0228 23:01:59.275074 24487 net.cpp:141] Setting up conv4/relu\n+I0228 23:01:59.275084 24487 net.cpp:148] Top shape: 128 256 13 13 (5537792)\n+I0228 23:01:59.275087 24487 net.cpp:156] Memory required for data: 569901056\n+I0228 23:01:59.275090 24487 layer_factory.hpp:77] Creating layer conv5/3x3_s1\n+I0228 23:01:59.275099 24487 net.cpp:91] Creating Layer conv5/3x3_s1\n+I0228 23:01:59.275102 24487 net.cpp:425] conv5/3x3_s1 <- conv4/3x3_s1\n+I0228 23:01:59.275109 24487 net.cpp:399] conv5/3x3_s1 -> conv5/3x3_s1\n+I0228 23:01:59.279484 24487 net.cpp:141] Setting up conv5/3x3_s1\n+I0228 23:01:59.279496 24487 net.cpp:148] Top shape: 128 256 13 13 (5537792)\n+I0228 23:01:59.279500 24487 net.cpp:156] Memory required for data: 592052224\n+I0228 23:01:59.279507 24487 layer_factory.hpp:77] Creating layer conv5/relu\n+I0228 23:01:59.279512 24487 net.cpp:91] Creating Layer conv5/relu\n+I0228 23:01:59.279516 24487 net.cpp:425] conv5/relu <- conv5/3x3_s1\n+I0228 23:01:59.279520 24487 net.cpp:386] conv5/relu -> conv5/3x3_s1 (in-place)\n+I0228 23:01:59.279769 24487 net.cpp:141] Setting up conv5/relu\n+I0228 23:01:59.279778 24487 net.cpp:148] Top shape: 128 256 13 13 (5537792)\n+I0228 23:01:59.279781 24487 net.cpp:156] Memory required for data: 614203392\n+I0228 23:01:59.279784 24487 layer_factory.hpp:77] Creating layer pool5/3x3_s2\n+I0228 23:01:59.279790 24487 net.cpp:91] Creating Layer pool5/3x3_s2\n+I0228 23:01:59.279793 24487 net.cpp:425] pool5/3x3_s2 <- conv5/3x3_s1\n+I0228 23:01:59.279799 24487 net.cpp:399] pool5/3x3_s2 -> pool5/3x3_s2\n+I0228 23:01:59.279834 24487 net.cpp:141] Setting up pool5/3x3_s2\n+I0228 23:01:59.279839 24487 net.cpp:148] Top shape: 128 256 6 6 (1179648)\n+I0228 23:01:59.279840 24487 net.cpp:156] Memory required for data: 618921984\n+I0228 23:01:59.279844 24487 layer_factory.hpp:77] Creating layer fc6\n+I0228 23:01:59.279850 24487 net.cpp:91] Creating Layer fc6\n+I0228 23:01:59.279852 24487 net.cpp:425] fc6 <- pool5/3x3_s2\n+I0228 23:01:59.279857 24487 net.cpp:399] fc6 -> fc6\n+I0228 23:01:59.346503 24487 net.cpp:141] Setting up fc6\n+I0228 23:01:59.346530 24487 net.cpp:148] Top shape: 128 4096 (524288)\n+I0228 23:01:59.346534 24487 net.cpp:156] Memory required for data: 621019136\n+I0228 23:01:59.346544 24487 layer_factory.hpp:77] Creating layer fc7\n+I0228 23:01:59.346551 24487 net.cpp:91] Creating Layer fc7\n+I0228 23:01:59.346556 24487 net.cpp:425] fc7 <- fc6\n+I0228 23:01:59.346562 24487 net.cpp:399] fc7 -> fc7\n+I0228 23:01:59.376416 24487 net.cpp:141] Setting up fc7\n+I0228 23:01:59.376454 24487 net.cpp:148] Top shape: 128 4096 (524288)\n+I0228 23:01:59.376457 24487 net.cpp:156] Memory required for data: 623116288\n+I0228 23:01:59.376466 24487 layer_factory.hpp:77] Creating layer fc8\n+I0228 23:01:59.376487 24487 net.cpp:91] Creating Layer fc8\n+I0228 23:01:59.376492 24487 net.cpp:425] fc8 <- fc7\n+I0228 23:01:59.376497 24487 net.cpp:399] fc8 -> fc8\n+I0228 23:01:59.383560 24487 net.cpp:141] Setting up fc8\n+I0228 23:01:59.383586 24487 net.cpp:148] Top shape: 128 1000 (128000)\n+I0228 23:01:59.383590 24487 net.cpp:156] Memory required for data: 623628288\n+I0228 23:01:59.383599 24487 net.cpp:219] fc8 does not need backward computation.\n+I0228 23:01:59.383604 24487 net.cpp:219] fc7 does not need backward computation.\n+I0228 23:01:59.383606 24487 net.cpp:219] fc6 does not need backward computation.\n+I0228 23:01:59.383610 24487 net.cpp:219] pool5/3x3_s2
…
   num_output: 128\n     pad: 2\n     kernel_size: 5\n-    weight_filler {\n-      type: \"xavier\"\n-      std: 0.03\n-    }\n-    bias_filler \n-I0417 00:34:01.370960 28795 net.cpp:340] Input 0 -> data\n-I0417 00:34:01.370998 28795 layer_factory.hpp:74] Creating layer conv1/7x7_s2\n-I0417 00:34:01.371014 28795 net.cpp:84] Creating Layer conv1/7x7_s2\n-I0417 00:34:01.371019 28795 net.cpp:380] conv1/7x7_s2 <- data\n-I0417 00:34:01.371026 28795 net.cpp:338] conv1/7x7_s2 -> conv1/7x7_s2\n-I0417 00:34:01.371034 28795 net.cpp:113] Setting up conv1/7x7_s2\n-I0417 00:34:01.371476 28795 net.cpp:120] Top shape: 128 64 112 112 (102760448)\n-I0417 00:34:01.371490 28795 layer_factory.hpp:74] Creating layer conv1/relu_7x7\n-I0417 00:34:01.371496 28795 net.cpp:84] Creating Layer conv1/relu_7x7\n-I0417 00:34:01.371500 28795 net.cpp:380] conv1/relu_7x7 <- conv1/7x7_s2\n-I0417 00:34:01.371505 28795 net.cpp:327] conv1/relu_7x7 -> conv1/7x7_s2 (in-place)\n-I0417 00:34:01.371510 28795 net.cpp:113] Setting up conv1/relu_7x7\n-I0417 00:34:01.371520 28795 net.cpp:120] Top shape: 128 64 112 112 (102760448)\n-I0417 00:34:01.371523 28795 layer_factory.hpp:74] Creating layer pool1/3x3_s2\n-I0417 00:34:01.371528 28795 net.cpp:84] Creating Layer pool1/3x3_s2\n-I0417 00:34:01.371531 28795 net.cpp:380] pool1/3x3_s2 <- conv1/7x7_s2\n-I0417 00:34:01.371536 28795 net.cpp:338] pool1/3x3_s2 -> pool1/3x3_s2\n-I0417 00:34:01.371541 28795 net.cpp:113] Setting up pool1/3x3_s2\n-I0417 00:34:01.371551 28795 net.cpp:120] Top shape: 128 64 56 56 (25690112)\n-I0417 00:34:01.371554 28795 layer_factory.hpp:74] Creating layer conv2/3x3_reduce\n-I0417 00:34:01.371559 28795 net.cpp:84] Creating Layer conv2/3x3_reduce\n-I0417 00:34:01.371562 28795 net.cpp:380] conv2/3x3_reduce <- pool1/3x3_s2\n-I0417 00:34:01.371567 28795 net.cpp:338] conv2/3x3_reduce -> conv2/3x3_reduce\n-I0417 00:34:01.371572 28795 net.cpp:113] Setting up conv2/3x3_reduce\n-I0417 00:34:01.371610 28795 net.cpp:120] Top shape: 128 64 56 56 (25690112)\n-I0417 00:34:01.371618 28795 layer_factory.hpp:74] Creating layer conv2/relu_3x3_reduce\n-I0417 00:34:01.371623 28795 net.cpp:84] Creating Layer conv2/relu_3x3_reduce\n-I0417 00:34:01.371624 28795 net.cpp:380] conv2/relu_3x3_reduce <- conv2/3x3_reduce\n-I0417 00:34:01.371628 28795 net.cpp:327] conv2/relu_3x3_reduce -> conv2/3x3_reduce (in-place)\n-I0417 00:34:01.371633 28795 net.cpp:113] Setting up conv2/relu_3x3_reduce\n-I0417 00:34:01.371636 28795 net.cpp:120] Top shape: 128 64 56 56 (25690112)\n-I0417 00:34:01.371639 28795 layer_factory.hpp:74] Creating layer conv2/3x3\n-I0417 00:34:01.371644 28795 net.cpp:84] Creating Layer conv2/3x3\n-I0417 00:34:01.371650 28795 net.cpp:380] conv2/3x3 <- conv2/3x3_reduce\n-I0417 00:34:01.371655 28795 net.cpp:338] conv2/3x3 -> conv2/3x3\n-I0417 00:34:01.371660 28795 net.cpp:113] Setting up conv2/3x3\n-I0417 00:34:01.372345 28795 net.cpp:120] Top shape: 128 192 56 56 (77070336)\n-I0417 00:34:01.372354 28795 layer_factory.hpp:74] Creating layer conv2/relu_3x3\n-I0417 00:34:01.372357 28795 net.cpp:84] Creating Layer conv2/relu_3x3\n-I0417 00:34:01.372360 28795 net.cpp:380] conv2/relu_3x3 <- conv2/3x3\n-I0417 00:34:01.372369 28795 net.cpp:327] conv2/relu_3x3 -> conv2/3x3 (in-place)\n-I0417 00:34:01.372372 28795 net.cpp:113] Setting up conv2/relu_3x3\n-I0417 00:34:01.372376 28795 net.cpp:120] Top shape: 128 192 56 56 (77070336)\n-I0417 00:34:01.372378 28795 layer_factory.hpp:74] Creating layer pool2/3x3_s2\n-I0417 00:34:01.372382 28795 net.cpp:84] Creating Layer pool2/3x3_s2\n-I0417 00:34:01.372385 28795 net.cpp:380] pool2/3x3_s2 <- conv2/3x3\n-I0417 00:34:01.372390 28795 net.cpp:338] pool2/3x3_s2 -> pool2/3x3_s2\n-I0417 00:34:01.372395 28795 net.cpp:113] Setting up pool2/3x3_s2\n-I0417 00:34:01.372400 28795 net.cpp:120] Top shape: 128 192 28 28 (19267584)\n-I0417 00:34:01.372402 28795 layer_factory.hpp:74] Creating layer pool2/3x3_s2_pool2/3x3_s2_0_split\n-I0417 00:34:01.372407 28795 net.cpp:84] Creating Layer pool2/3x3_s2_pool2/3x3_s2_0_split\n-I0417 00:34:01.372411 28795 net.cpp:380] pool2/3x3_s2_pool2/3x3_s2_0_split <- pool2/3x3_s2\n-I0417 00:34:01.372414 28795 net.cpp:338] pool2/3x3_s2_pool2/3x3_s2_0_split -> pool2/3x3_s2_pool2/3x3_s2_0_split_0\n-I0417 00:34:01.372418 28795 net.cpp:338] pool2/3x3_s2_pool2/3x3_s2_0_split -> pool2/3x3_s2_pool2/3x3_s2_0_split_1\n-I0417 00:34:01.372424 28795 net.cpp:338] pool2/3x3_s2_pool2/3x3_s2_0_split -> pool2/3x3_s2_pool2/3x3_s2_0_split_2\n-I0417 00:34:01.372429 28795 net.cpp:338] pool2/3x3_s2_pool2/3x3_s2_0_split -> pool2/3x3_s2_pool2/3x3_s2_0_split_3\n-I0417 00:34:01.372433 28795 net.cpp:113] Setting up pool2/3x3_s2_pool2/3x3_s2_0_split\n-I0417 00:34:01.372438 28795 net.cpp:120] Top shape: 128 192 28 28 (19267584)\n-I0417 00:34:01.372442 28795 net.cpp:120] Top shape: 128 192 28 28 (19267584)\n-I0417 00:34:01.372445 28795 net.cpp:120] Top shape: 128 192 28 28 (19267584)\n-I0417 00:34:01.372448 28795 net.cpp:120] Top shape: 128 192 28 28 (19267584)\n-I0417 00:34:01.372452 28795 layer_factory.hpp:74] Creating layer inception_3a/1x1\n-I0417 00:34:01.372458 28795 net.cpp:84] Creating Layer inception_3a/1x1\n-I0417 00:34:01.372462 28795 net.cpp:380] inception_3a/1x1 <- pool2/3x3_s2_pool2/3x3_s2_0_split_0\n-I0417 00:34:01.372467 28795 net.cpp:338] inception_3a/1x1 -> inception_3a/1x1\n-I0417 00:34:01.372473 28795 net.cpp:113] Setting up inception_3a/1x1\n-I0417 00:34:01.372555 28795 net.cpp:120] Top shape: 128 64 28 28 (6422528)\n-I0417 00:34:01.372560 28795 layer_factory.hpp:74] Creating layer inception_3a/relu_1x1\n-I0417 00:34:01.372565 28795 net.cpp:84] Creating Layer inception_3a/relu_1x1\n-I0417 00:34:01.372568 28795 net.cpp:380] inception_3a/relu_1x1 <- inception_3a/1x1\n-I0417 00:34:01.372572 28795 net.cpp:327] inception_3a/relu_1x1 -> inception_3a/1x1 (in-place)\n-I0417 00:34:01.372576 28795 net.cpp:113] Setting up inception_3a/relu_1x1\n-I0417 00:34:01.372581 28795 net.cpp:120] Top shape: 128 64 28 28 (6422528)\n-I0417 00:34:01.372583 28795 layer_factory.hpp:74] Creating layer inception_3a/3x3_reduce\n-I0417 00:34:01.372587 28795 net.cpp:84] Creating Layer inception_3a/3x3_reduce\n-I0417 00:34:01.372591 28795 net.cpp:380] inception_3a/3x3_reduce <- pool2/3x3_s2_pool2/3x3_s2_0_split_1\n-I0417 00:34:01.372596 28795 net.cpp:338] inception_3a/3x3_reduce -> inception_3a/3x3_reduce\n-I0417 00:34:01.372601 28795 net.cpp:113] Setting up inception_3a/3x3_reduce\n-I0417 00:34:01.372638 28795 net.cpp:120] Top shape: 128 96 28 28 (9633792)\n-I0417 00:34:01.372645 28795 layer_factory.hpp:74] Creating layer inception_3a/relu_3x3_reduce\n-I0417 00:34:01.372649 28795 net.cpp:84] Creating Layer inception_3a/relu_3x3_reduce\n-I0417 00:34:01.372653 28795 net.cpp:380] inception_3a/relu_3x3_reduce <- inception_3a/3x3_reduce\n-I0417 00:34:01.372658 28795 net.cpp:327] inception_3a/relu_3x3_reduce -> inception_3a/3x3_reduce (in-place)\n-I0417 00:34:01.372664 28795 net.cpp:113] Setting up inception_3a/relu_3x3_reduce\n-I0417 00:34:01.372668 28795 net.cpp:120] Top shape: 128 96 28 28 (9633792)\n-I0417 00:34:01.372671 28795 layer_factory.hpp:74] Creating layer inception_3a/3x3\n-I0417 00:34:01.372676 28795 net.cpp:84] Creating Layer inception_3a/3x3\n-I0417 00:34:01.372679 28795 net.cpp:380] inception_3a/3x3 <- inception_3a/3x3_reduce\n-I0417 00:34:01.372684 28795 net.cpp:338] inception_3a/3x3 -> inception_3a/3x3\n-I0417 00:34:01.372689 28795 net.cpp:113] Setting up inception_3a/3x3\n-I0417 00:34:01.373369 28795 net.cpp:120] Top shape: 128 128 28 28 (12845056)\n-I0417 00:34:01.373378 28795 layer_factory.hpp:74] Creating layer inception_3a/relu_3x3\n-I0417 00:34:01.373381 28795 net.cpp:84] Creating Layer inception_3a/relu_3x3\n-I0417 00:34:01.373384 28795 net.cpp:380] inception_3a/relu_3x3 <- inception_3a/3x3\n-I0417 00:34:01.373389 28795 net.cpp:327] inception_3a/relu_3x3 -> inception_3a/3x3 (in-place)\n-I0417 00:34:01.373394 28795 net.cpp:113] Setting up inception_3a/relu_3x3\n-I0417 00:34:01.373396 28795 net.cpp:120] Top shape: 128 128 28 28 (12845056)\n-I0417 00:34:01.373399 28795 layer_factory.hpp:74] Creating layer inception_3a/5x5_reduce\n-I0417 00:34:01.373404 28795 net.cpp:84] Creating Layer inception_3a/5x5_reduce\n-I0417 00:34:01.373406 28795 net.cpp:380] inception_3a/5x5_reduce <- pool2/3x3_s2_pool2/3x3_s2_0_split_2\n-I0417 00:34:01.373412 28795 net.cpp:338] inception_3a/5x5_reduce -> inception_3a/5x5_reduce\n-I0417 00:34:01.373417 28795 net.cpp:113] Setting up inception_3a/5x5_reduce\n-I0417 00:34:01.373446 28795 net.cpp:120] Top shape: 128 16 28 28 (1605632)\n-I0417 00:34:01.373451 28795 layer_factory.hpp:74] Creating layer inception_3a/relu_5x5_reduce\n-I0417 00:34:01.373456 28795 net.cpp:84] Creating Layer inception_3a/relu_5x5_reduce\n-I0417 00:34:01.373460 28795 net.cpp:380] inception_3a/relu_5x5_reduce <- inception_3a/5x5_reduce\n-I0417 00:34:01.373462 28795 net.cpp:327] inception_3a/relu_5x5_reduce -> inception_3a/5x5_reduce (in-place)\n-I0417 00:34:01.373466 28795 net.cpp:113] Setting up inception_3a/relu_5x5_reduce\n-I0417 00:34:01.373471 28795 net.cpp:120] Top shape: 128 16 28 28 (1605632)\n-I0417 00:34:01.373473 28795 layer_factory.hpp:74] Creating layer inception_3a/5x5\n-I0417 00:34:01.373478 28795 net.cpp:84] Creating Layer inception_3a/5x5\n-I0417 00:34:01.373481 28795 net.cpp:380] inception_3a/5x5 <- inception_3a/5x5_reduce\n-I0417 00:34:01.373489 28795 net.cpp:338] inception_3a/5x5 -> inception_3a/5x5\n-I0417 00:34:01.373493 28795 net.cpp:113] Setting up inception_3a/5x5\n-I0417 00:34:01.373579 28795 net.cpp:120] Top shape: 128 32 28 28 (3211264)\n-I0417 00:34:01.373584 28795 layer_factory.hpp:74] Creating layer inception_3a/relu_5x5\n-I0417 00:34:01.373589 28795 net.cpp:84] Creating Layer inception_3a/relu_5x5\n-I0417 00:34:01.373591 28795 net.cpp:380] inception_3a/relu_5x5 <- inception_3a/5x5\n-I0417 00:34:01.373595 28795 net.cpp:327] inception_3a/relu_5x5 -> inception_3a/5x5 (in-place)\n-I0417 00:34:01.373600 28795 net.cpp:113] Setting up inception_3a/relu_5x5\n-I0417 00:34:01.373603 28795 net.cpp:120] Top shape: 128 32 28 28 (3211264)\n-I0417 00:34:01.373605 28795 layer_factory.hpp:74] Creating layer inception_3a/pool\n-I0417 00:34:01.373610 28795 net.cpp:84] Creating Layer inception_3a/pool\n-I0417 00:34:01.373613 28795 net.cpp:380] inception_3a/pool <- pool2/3x3_s2_pool2/3x3_s2_0_split_3\n-I0417 00:34:01.373617 28795 net.cpp:338] inception_3a/pool -> inception_3a/pool\n-I0417 00:34:01.373622 28795 net.cpp:113] Setting up inception_3a/pool\n-I0417 00:34:01.373627 28795 net.cpp:120] Top shape: 128 192 28 28 (19267584)\n-I0417 00:34:01.373631 28795 layer_factory.hpp:74] Creating layer inception_3a/pool_proj\n-I0417 00:34:01.373635 28795 net.cpp:84] Creating Layer inception_3a/pool_proj\n-I0417 00:34:01.373637 28795 net.cpp:380] inception_3a/pool_proj <- inception_3a/pool\n-I0417 00:34:01.373642 28795 net.cpp:338] inception_3a/pool_proj -> inception_3a/pool_proj\n-I0417 00:34:01.373648 28795 net.cpp:113] Setting up inception_3a/pool_proj\n-I0417 00:34:01.373697 28795 net.cpp:120] Top shape: 128 32 28 28 (3211264)\n-I0417 00:34:01.373708 28795 layer_factory.hpp:74] Creating layer inception_3a/relu_pool_proj\n-I0417 00:34:01.373711 28795 net.cpp:84] Creating Layer inception_3a/relu_pool_proj\n-I0417 00:34:01.373714 28795 net.cpp:380] inception_3a/relu_pool_proj <- inception_3a/pool_proj\n-I0417 00:34:01.373718 28795 net.cpp:327] inception_3a/relu_pool_proj -> inception_3a/pool_proj (in-place)\n-I0417 00:34:01.373721 28795 net.cpp:113] Setting up inception_3a/relu_pool_proj\n-I0417 00:34:01.373725 28795 net.cpp:120] Top shape: 128 32 28 28 (3211264)\n-I0417 00:34:01.373728 28795 layer_factory.hpp:74] Creating layer inception_3a/output\n-I0417 00:34:01.373733 28795 net.cpp:84] Creating Layer inception_3a/output\n-I0417 00:34:01.373735 28795 net.cpp:380] inception_3a/output <- inception_3a/1x1\n-I0417 00:34:01.373739 28795 net.cpp:380] inception_3a/output <- inception_3a/3x3\n-I0417 00:34:01.373742 28795 net.cpp:380] inception_3a/output <- inception_3a/5x5\n-I0417 00:34:01.373745 28795 net.cpp:380] inception_3a/output <- inception_3a/pool_proj\n-I0417 00:34:01.373750 28795 net.cpp:338] inception_3a/output -> inception_3a/output\n-I0417 00:34:01.373754 28795 net.cpp:113] Setting up inception_3a/output\n-I0417 00:34:01.373760 28795 net.cpp:120] Top shape: 128 256 28 28 (25690112)\n-I0417 00:34:01.373764 28795 layer_factory.hpp:74] Creating layer inception_3a/output_inception_3a/output_0_split\n-I0417 00:34:01.373767 28795 net.cpp:84] Creating Layer inception_3a/output_inception_3a/output_0_split\n-I0417 00:34:01.373769 28795 net.cpp:380] inception_3a/output_inception_3a/output_0_split <- inception_3a/output\n-I0417 00:34:01.373775 28795 net.cpp:338] inception_3a/output_inception_3a/output_0_split -> inception_3a/output_inception_3a/output_0_split_0\n-I0417 00:34:01.373780 28795 net.cpp:338] inception_3a/output_inception_3a/output_0_split -> inception_3a/output_inception_3a/output_0_split_1\n-I0417 00:34:01.373785 28795 net.cpp:338] inception_3a/output_inception_3a/output_0_split -> inception_3a/output_inception_3a/output_0_split_2\n-I0417 00:34:01.373790 28795 net.cpp:338] inception_3a/output_inception_3a/output_0_split -> inception_3a/output_inception_3a/output_0_split_3\n-I0417 00:34:01.373793 28795 net.cpp:113] Setting up inception_3a/output_inception_3a/output_0_split\n-I0417 00:34:01.373798 28795 net.cpp:120] Top shape: 128 256 28 28 (25690112)\n-I0417 00:34:01.373801 28795 net.cpp:120] Top shape: 128 256 28 28 (25690112)\n-I0417 00:34:01.373805 28795 net.cpp:120] Top shape: 128 256 28 28 (25690112)\n-I0417 00:34:01.373808 28795 net.cpp:120] Top shape: 128 256 28 28 (25690112)\n-I0417 00:34:01.373811 28795 layer_factory.hpp:74] Creating layer inception_3b/1x1\n-I0417 00:34:01.373816 28795 net.cpp:84] Creating Layer inception_3b/1x1\n-I0417 00:34:01.373819 28795 net.cpp:380] inception_3b/1x1 <- inception_3a/output_inception_3a/output_0_split_0\n-I0417 00:34:01.373823 28795 net.cpp:338] inception_3b/1x1 -> inception_3b/1x1\n-I0417 00:34:01.373828 28795 net.cpp:113] Setting up inception_3b/1x1\n-I0417 00:34:01.374040 28795 net.cpp:120] Top shape: 128 128 28 28 (12845056)\n-I0417 00:34:01.374047 28795 layer_factory.hpp:74] Creating layer inception_3b/relu_1x1\n-I0417 00:34:01.374052 28795 net.cpp:84] Creating Layer inception_3b/relu_1x1\n-I0417 00:34:01.374054 28795 net.cpp:380] inception_3b/relu_1x1 <- inception_3b/1x1\n-I0417 00:34:01.374058 28795 net.cpp:327] inception_3b/relu_1x1 -> inception_3b/1x1 (in-place)\n-I0417 00:34:01.374061 28795 net.cpp:113] Setting up inception_3b/relu_1x1\n-I0417 00:34:01.374065 28795 net.cpp:120] Top shape: 128 128 28 28 (12845056)\n-I0417 00:34:01.374068 28795 layer_factory.hpp:74] Creating layer inception_3b/3x3_reduce\n-I0417 00:34:01.374073 28795 net.cpp:84] Creating Layer inception_3b/3x3_reduce\n-I0417 00:34:01.374076 28795 net.cpp:380] inception_3b/3x3_reduce <- inception_3a/output_inception_3a/output_0_split_1\n-I0417 00:34:01.374081 28795 net.cpp:338] inception_3b/3x3_reduce -> inception_3b/3x3_reduce\n-I0417 00:34:01.374085 28795 net.cpp:113] Setting up inception_3b/3x3_reduce\n-I0417 00:34:01.374296 28795 net.cpp:120] Top shape: 128 128 28 28 (12845056)\n-I0417 00:34:01.374305 28795 layer_factory.hpp:74] Creating layer inception_3b/relu_3x3_reduce\n-I0417 00:34:01.374310 28795 net.cpp:84] Creating Layer inception_3b/relu_3x3_reduce\n-I0417 00:34:01.374312 28795 net.cpp:380] inception_3b/relu_3x3_reduce <- inception_3b/3x3_reduce\n-I0417 00:34:01.374316 28795 net.cpp:327] inception_3b/relu_3x3_reduce -> inception_3b/3x3_reduce (in-place)\n-I0417 00:34:01.374320 28795 net.cpp:113] Setting up inception_3b/relu_3x3_reduce\n-I0417 00:34:01.374323 28795 net.cpp:120] Top shape: 128 128 28 28 (12845056)\n-I0417 00:34:01.374326 28795 layer_factory.hpp:74] Creating layer inception_3b/3x3\n-I0417 00:34:01.374330 28795 net.cpp:84] Creating Layer inception_3b/3x3\n-I0417 00:34:01.374333 28795 net.cpp:380] inception_3b/3x3 <- inception_3b/3x3_reduce\n-I0417 00:34:01.374338 28795 net.cpp:338] inception_3b/3x3 -> inception_3b/3x3\n-I0417 00:34:01.374343 28795 net.cpp:113] Setting up inception_3b/3x3\n-I0417 00:34:01.375738 28795 net.cpp:120] Top shape: 128 192 28 28 (19267584)\n-I0417 00:34:01.375748 28795 layer_factory.hpp:74] Creating layer inception_3b/relu_3x3\n-I0417 00:34:01.375753 28795 net.cpp:84] Creating Layer inception_3b/relu_3x3\n-I0417 00:34:01.375756 28795 net.cpp:380] inception_3b/relu_3x3 <- inception_3b/3x3\n-I0417 00:34:01.375761 28795 net.cpp:327] inception_3b/relu_3x3 -> inception_3b/3x3 (in-place)\n-I0417 00:34:01.375766 28795 net.cpp:113] Setting up inception_3b/relu_3x3\n-I0417 00:34:01.375769 28795 net.cpp:120] Top shape: 128 192 28 28 (19267584)\n-I0417 00:34:01.375771 28795 layer_factory.hpp:74] Creating layer inception_3b/5x5_reduce\n-I0417 00:34:01.375777 28795 net.cpp:84] Creating Layer inception_3b/5x5_reduce\n-I0417 00:34:01.375779 28795 net.cpp:380] inception_3b/5x5_reduce <- inception_3a/output_inception_3a/output_0_split_2\n-I0417 00:34:01.375784 28795 net.cpp:338] inception_3b/5x5_reduce -> inception_3b/5x5_reduce\n-I0417 00:34:01.375789 28795 net.cpp:113] Setting up inception_3b/5x5_reduce\n-I0417 00:34:01.375849 28795 net.cpp:120] Top shape: 128 32 28 28 (3211264)\n-I0417 00:34:01.375854 28795 layer_factory.hpp:74] Creating layer inception_3b/relu_5x5_reduce\n-I0417 00:34:01.375857 28795 net.cpp:84] Creating Layer inception_3b/relu_5x5_reduce\n-I0417 00:34:01.375860 28795 net.cpp:380] inception_3b/relu_5x5_reduce <- inception_3b/5x5_reduce\n-I0417 00:34:01.375865 28795 net.cpp:327] inception_3b/relu_5x5_reduce -> inception_3b/5x5_reduce (in-place)\n-I0417 00:34:01.375869 28795 net.cpp:113] Setting up inception_3b/relu_5x5_reduce\n-I0417 00:34:01.375872 28795 net.cpp:120] Top shape: 128 32 28 28 (3211264)\n-I0417 00:34:01.375875 28795 layer_factory.hpp:74] Creating layer inception_3b/5x5\n-I0417 00:34:01.375881 28795 net.cpp:84] Creating Layer inception_3b/5x5\n-I0417 00:34:01.375885 28795 net.cpp:380] inception_3b/5x5 <- inception_3b/5x5_reduce\n-I0417 00:34:01.375890 28795 net.cpp:338] inception_3b/5x5 -> inception_3b/5x5\n-I0417 00:34:01.375895 28795 net.cpp:113] Setting up inception_3b/5x5\n-I0417 00:34:01.376369 28795 net.cpp:120] Top shape: 128 96 28 28 (9633792)\n-I0417 00:34:01.376376 28795 layer_factory.hpp:74] Creating layer inception_3b/relu_5x5\n-I0417 00:34:01.376381 28795 net.cpp:84] Creating Layer inception_3b/relu_5x5\n-I0417 00:34:01.376384 28795 net.cpp:380] inception_3b/relu_5x5 <- inception_3b/5x5\n-I0417 00:34:01.376387 28795 net.cpp:327] inception_3b/relu_5x5 -> inception_3b/5x5 (in-place)\n-I0417 00:34:01.376391 28795 net.cpp:113] Setting up inception_3b/relu_5x5\n-I0417 00:34:01.376395 28795 net.cpp:120] Top shape: 128 96 28 28 (9633792)\n-I0417 00:34:01.376399 28795 layer_factory.hpp:74] Creating layer inception_3b/pool\n-I0417 00:34:01.376402 28795 net.cpp:84] Creating Layer inception_3b/pool\n-I0417 00:34:01.376405 28795 net.cpp:380] inception_3b/pool <- inception_3a/output_inception_3a/output_0_split_3\n-I0417 00:34:01.376410 28795 net.cpp:338] inception_3b/pool -> inception_3b/pool\n-I0417 00:34:01.376413 28795 net.cpp:113] Setting up inception_3b/pool\n-I0417 00:34:01.376420 28795 net.cpp:120] Top shape: 128 256 28 28 (25690112)\n-I0417 00:34:01.376422 28795 layer_factory.hpp:74] Creating layer inception_3b/pool_proj\n-I0417 00:34:01.376431 28795 net.cpp:84] Creating Layer inception_3b/pool_proj\n-I0417 00:34:01.376435 28795 net.cpp:380] inception_3b/pool_proj <- inception_3b/pool\n-I0417 00:34:01.376440 28795 net.cpp:338] inception_3b/pool_proj -> inception_3b/pool_proj\n-I0417 00:34:01.376444 28795 net.cpp:113] Setting up inception_3b/pool_proj\n-I0417 00:34:01.376556 28795 net.cpp:120] Top shape: 128 64 28 28 (6422528)\n-I0417 00:34:01.376562 28795 layer_factory.hpp:74] Creating layer inception_3b/relu_pool_proj\n-I0417 00:34:01.376566 28795 net.cpp:84] Creating Layer inception_3b/relu_pool_proj\n-I0417 00:34:01.376569 28795 net.cpp:380] inception_3b/relu_pool_proj <- inception_3b/pool_proj\n-I0417 00:34:01.376572 28795 net.cpp:327] i", "changed_files": [{"status": "M", "path": "caffe/output_alexnet.log"}, {"status": "M", "path": "caffe/output_googlenet.log"}, {"status": "M", "path": "caffe/output_overfeat.log"}, {"status": "M", "path": "caffe/output_vgg_a.log"}], "n_files_changed": 4}
…
um_output: 4096\n+  }\n+}\n+layer {\n+  name: \"fc8\"\n+  type: \"InnerProduct\"\n+  bottom: \"fc7\"\n+  top: \"fc8\"\n+  inner_product_param {\n+    num_output: 1000\n+  }\n+}\n+I0822 16:50:40.680248  9913 net.cpp:440] Input 0 -> data\n+I0822 16:50:40.680284  9913 layer_factory.hpp:76] Creating layer conv1\n+I0822 16:50:40.680297  9913 net.cpp:110] Creating Layer conv1\n+I0822 16:50:40.680306  9913 net.cpp:485] conv1 <- data\n+I0822 16:50:40.680313  9913 net.cpp:438] conv1 -> conv1/11x11_s4\n+I0822 16:50:40.680809  9913 net.cpp:155] Setting up conv1\n+I0822 16:50:40.680819  9913 net.cpp:163] Top shape: 128 64 55 55 (24780800)\n+I0822 16:50:40.680835  9913 layer_factory.hpp:76] Creating layer conv1/relu\n+I0822 16:50:40.680842  9913 net.cpp:110] Creating Layer conv1/relu\n+I0822 16:50:40.680845  9913 net.cpp:485] conv1/relu <- conv1/11x11_s4\n+I0822 16:50:40.680850  9913 net.cpp:425] conv1/relu -> conv1/11x11_s4 (in-place)\n+I0822 16:50:40.680858  9913 net.cpp:155] Setting up conv1/relu\n+I0822 16:50:40.680862  9913 net.cpp:163] Top shape: 128 64 55 55 (24780800)\n+I0822 16:50:40.680866  9913 layer_factory.hpp:76] Creating layer pool1/3x3_s2\n+I0822 16:50:40.680871  9913 net.cpp:110] Creating Layer pool1/3x3_s2\n+I0822 16:50:40.680873  9913 net.cpp:485] pool1/3x3_s2 <- conv1/11x11_s4\n+I0822 16:50:40.680877  9913 net.cpp:438] pool1/3x3_s2 -> pool1/3x3_s2\n+I0822 16:50:40.680891  9913 net.cpp:155] Setting up pool1/3x3_s2\n+I0822 16:50:40.680896  9913 net.cpp:163] Top shape: 128 64 27 27 (5971968)\n+I0822 16:50:40.680898  9913 layer_factory.hpp:76] Creating layer conv2/5x5_s1\n+I0822 16:50:40.680903  9913 net.cpp:110] Creating Layer conv2/5x5_s1\n+I0822 16:50:40.680907  9913 net.cpp:485] conv2/5x5_s1 <- pool1/3x3_s2\n+I0822 16:50:40.680912  9913 net.cpp:438] conv2/5x5_s1 -> conv2/5x5_s1\n+I0822 16:50:40.682770  9913 net.cpp:155] Setting up conv2/5x5_s1\n+I0822 16:50:40.682778  9913 net.cpp:163] Top shape: 128 192 27 27 (17915904)\n+I0822 16:50:40.682785  9913 layer_factory.hpp:76] Creating layer cpnv2/relu\n+I0822 16:50:40.682790  9913 net.cpp:110] Creating Layer cpnv2/relu\n+I0822 16:50:40.682795  9913 net.cpp:485] cpnv2/relu <- conv2/5x5_s1\n+I0822 16:50:40.682798  9913 net.cpp:425] cpnv2/relu -> conv2/5x5_s1 (in-place)\n+I0822 16:50:40.682804  9913 net.cpp:155] Setting up cpnv2/relu\n+I0822 16:50:40.682807  9913 net.cpp:163] Top shape: 128 192 27 27 (17915904)\n+I0822 16:50:40.682811  9913 layer_factory.hpp:76] Creating layer pool2/3x3_s2\n+I0822 16:50:40.682816  9913 net.cpp:110] Creating Layer pool2/3x3_s2\n+I0822 16:50:40.682817  9913 net.cpp:485] pool2/3x3_s2 <- conv2/5x5_s1\n+I0822 16:50:40.682822  9913 net.cpp:438] pool2/3x3_s2 -> pool2/3x3_s2\n+I0822 16:50:40.682832  9913 net.cpp:155] Setting up pool2/3x3_s2\n+I0822 16:50:40.682837  9913 net.cpp:163] Top shape: 128 192 13 13 (4153344)\n+I0822 16:50:40.682840  9913 layer_factory.hpp:76] Creating layer conv3/3x3_s1\n+I0822 16:50:40.682845  9913 net.cpp:110] Creating Layer conv3/3x3_s1\n+I0822 16:50:40.682848  9913 net.cpp:485] conv3/3x3_s1 <- pool2/3x3_s2\n+I0822 16:50:40.682853  9913 net.cpp:438] conv3/3x3_s1 -> conv3/3x3_s1\n+I0822 16:50:40.686522  9913 net.cpp:155] Setting up conv3/3x3_s1\n+I0822 16:50:40.686529  9913 net.cpp:163] Top shape: 128 384 13 13 (8306688)\n+I0822 16:50:40.686537  9913 layer_factory.hpp:76] Creating layer conv3/relu\n+I0822 16:50:40.686540  9913 net.cpp:110] Creating Layer conv3/relu\n+I0822 16:50:40.686543  9913 net.cpp:485] conv3/relu <- conv3/3x3_s1\n+I0822 16:50:40.686548  9913 net.cpp:425] conv3/relu -> conv3/3x3_s1 (in-place)\n+I0822 16:50:40.686553  9913 net.cpp:155] Setting up conv3/relu\n+I0822 16:50:40.686558  9913 net.cpp:163] Top shape: 128 384 13 13 (8306688)\n+I0822 16:50:40.686560  9913 layer_factory.hpp:76] Creating layer conv4/3x3_s1\n+I0822 16:50:40.686566  9913 net.cpp:110] Creating Layer conv4/3x3_s1\n+I0822 16:50:40.686569  9913 net.cpp:485] conv4/3x3_s1 <- conv3/3x3_s1\n+I0822 16:50:40.686573  9913 net.cpp:438] conv4/3x3_s1 -> conv4/3x3_s1\n+I0822 16:50:40.691813  9913 net.cpp:155] Setting up conv4/3x3_s1\n+I0822 16:50:40.691823  9913 net.cpp:163] Top shape: 128 256 13 13 (5537792)\n+I0822 16:50:40.691828  9913 layer_factory.hpp:76] Creating layer conv4/relu\n+I0822 16:50:40.691833  9913 net.cpp:110] Creating Layer conv4/relu\n+I0822 16:50:40.691835  9913 net.cpp:485] conv4/relu <- conv4/3x3_s1\n+I0822 16:50:40.691840  9913 net.cpp:425] conv4/relu -> conv4/3x3_s1 (in-place)\n+I0822 16:50:40.691845  9913 net.cpp:155] Setting up conv4/relu\n+I0822 16:50:40.691854  9913 net.cpp:163] Top shape: 128 256 13 13 (5537792)\n+I0822 16:50:40.691858  9913 layer_factory.hpp:76] Creating layer conv5/3x3_s1\n+I0822 16:50:40.691862  9913 net.cpp:110] Creating Layer conv5/3x3_s1\n+I0822 16:50:40.691865  9913 net.cpp:485] conv5/3x3_s1 <- conv4/3x3_s1\n+I0822 16:50:40.691870  9913 net.cpp:438] conv5/3x3_s1 -> conv5/3x3_s1\n+I0822 16:50:40.695372  9913 net.cpp:155] Setting up conv5/3x3_s1\n+I0822 16:50:40.695380  9913 net.cpp:163] Top shape: 128 256 13 13 (5537792)\n+I0822 16:50:40.695387  9913 layer_factory.hpp:76] Creating layer conv5/relu\n+I0822 16:50:40.695392  9913 net.cpp:110] Creating Layer conv5/relu\n+I0822 16:50:40.695395  9913 net.cpp:485] conv5/relu <- conv5/3x3_s1\n+I0822 16:50:40.695399  9913 net.cpp:425] conv5/relu -> conv5/3x3_s1 (in-place)\n+I0822 16:50:40.695405  9913 net.cpp:155] Setting up conv5/relu\n+I0822 16:50:40.695410  9913 net.cpp:163] Top shape: 128 256 13 13 (5537792)\n+I0822 16:50:40.695412  9913 layer_factory.hpp:76] Creating layer pool5/3x3_s2\n+I0822 16:50:40.695416  9913 net.cpp:110] Creating Layer pool5/3x3_s2\n+I0822 16:50:40.695420  9913 net.cpp:485] pool5/3x3_s2 <- conv5/3x3_s1\n+I0822 16:50:40.695423  9913 net.cpp:438] pool5/3x3_s2 -> pool5/3x3_s2\n+I0822 16:50:40.695431  9913 net.cpp:155] Setting up pool5/3x3_s2\n+I0822 16:50:40.695436  9913 net.cpp:163] Top shape: 128 256 6 6 (1179648)\n+I0822 16:50:40.695440  9913 layer_factory.hpp:76] Creating layer fc6\n+I0822 16:50:40.695448  9913 net.cpp:110] Creating Layer fc6\n+I0822 16:50:40.695451  9913 net.cpp:485] fc6 <- pool5/3x3_s2\n+I0822 16:50:40.695456  9913 net.cpp:438] fc6 -> fc6\n+I0822 16:50:40.724627  9913 net.cpp:155] Setting up fc6\n+I0822 16:50:40.724647  9913 net.cpp:163] Top shape: 128 4096 (524288)\n+I0822 16:50:40.724655  9913 layer_factory.hpp:76] Creating layer fc7\n+I0822 16:50:40.724663  9913 net.cpp:110] Creating Layer fc7\n+I0822 16:50:40.724666  9913 net.cpp:485] fc7 <- fc6\n+I0822 16:50:40.724673  9913 net.cpp:438] fc7 -> fc7\n+I0822 16:50:40.737881  9913 net.cpp:155] Setting up fc7\n+I0822 16:50:40.737903  9913 net.cpp:163] Top shape: 128 4096 (524288)\n+I0822 16:50:40.737912  9913 layer_factory.hpp:76] Creating layer fc8\n+I0822 16:50:40.737920  9913 net.cpp:110] Creating Layer fc8\n+I0822 16:50:40.737925  9913 net.cpp:485] fc8 <- fc7\n+I0822 16:50:40.737931  9913 net.cpp:438] fc8 -> fc8\n+I0822 16:50:40.741376  9913 net.cpp:155] Setting up fc8\n+I0822 16:50:40.741395  9913 net.cpp:163] Top shape: 128 1000 (128000)\n+I0822 16:50:40.741403  9913 net.cpp:244] fc8 does not need backward computation.\n+I0822 16:50:40.741407  9913 net.cpp:244] fc7 does not need backward computation.\n+I0822 16:50:40.741411  9913 net.cpp:244] fc6 does not need backward computation.\n+I0822 16:50:40.741415  9913 net.cpp:244] pool5/3x3_s2 does not need backward computation.\n+I0822 16:50:40.741417  9913 net.cpp:244]
…
r {\n-  name: \"fc8-conv\"\n-  type: \"Convolution\"\n-  bottom: \"fc7-conv\"\n-  top: \"fc8-conv\"\n-  convolution_param {\n-    num_output: 1000\n-    kernel_size: 1\n-  }\n-}\n-I0417 00:12:26.145980 28377 net.cpp:340] Input 0 -> data\n-I0417 00:12:26.146019 28377 layer_factory.hpp:74] Creating layer conv1\n-I0417 00:12:26.146036 28377 net.cpp:84] Creating Layer conv1\n-I0417 00:12:26.146041 28377 net.cpp:380] conv1 <- data\n-I0417 00:12:26.146047 28377 net.cpp:338] conv1 -> conv1/11x11_s4\n-I0417 00:12:26.146057 28377 net.cpp:113] Setting up conv1\n-I0417 00:12:26.146553 28377 net.cpp:120] Top shape: 128 64 55 55 (24780800)\n-I0417 00:12:26.146566 28377 layer_factory.hpp:74] Creating layer conv1/relu\n-I0417 00:12:26.146574 28377 net.cpp:84] Creating Layer conv1/relu\n-I0417 00:12:26.146576 28377 net.cpp:380] conv1/relu <- conv1/11x11_s4\n-I0417 00:12:26.146580 28377 net.cpp:327] conv1/relu -> conv1/11x11_s4 (in-place)\n-I0417 00:12:26.146585 28377 net.cpp:113] Setting up conv1/relu\n-I0417 00:12:26.146595 28377 net.cpp:120] Top shape: 128 64 55 55 (24780800)\n-I0417 00:12:26.146597 28377 layer_factory.hpp:74] Creating layer pool1/3x3_s2\n-I0417 00:12:26.146602 28377 net.cpp:84] Creating Layer pool1/3x3_s2\n-I0417 00:12:26.146605 28377 net.cpp:380] pool1/3x3_s2 <- conv1/11x11_s4\n-I0417 00:12:26.146610 28377 net.cpp:338] pool1/3x3_s2 -> pool1/3x3_s2\n-I0417 00:12:26.146615 28377 net.cpp:113] Setting up pool1/3x3_s2\n-I0417 00:12:26.146625 28377 net.cpp:120] Top shape: 128 64 27 27 (5971968)\n-I0417 00:12:26.146630 28377 layer_factory.hpp:74] Creating layer conv2/5x5_s1\n-I0417 00:12:26.146633 28377 net.cpp:84] Creating Layer conv2/5x5_s1\n-I0417 00:12:26.146636 28377 net.cpp:380] conv2/5x5_s1 <- pool1/3x3_s2\n-I0417 00:12:26.146641 28377 net.cpp:338] conv2/5x5_s1 -> conv2/5x5_s1\n-I0417 00:12:26.146646 28377 net.cpp:113] Setting up conv2/5x5_s1\n-I0417 00:12:26.148496 28377 net.cpp:120] Top shape: 128 192 27 27 (17915904)\n-I0417 00:12:26.148506 28377 layer_factory.hpp:74] Creating layer cpnv2/relu\n-I0417 00:12:26.148511 28377 net.cpp:84] Creating Layer cpnv2/relu\n-I0417 00:12:26.148515 28377 net.cpp:380] cpnv2/relu <- conv2/5x5_s1\n-I0417 00:12:26.148519 28377 net.cpp:327] cpnv2/relu -> conv2/5x5_s1 (in-place)\n-I0417 00:12:26.148524 28377 net.cpp:113] Setting up cpnv2/relu\n-I0417 00:12:26.148529 28377 net.cpp:120] Top shape: 128 192 27 27 (17915904)\n-I0417 00:12:26.148530 28377 layer_factory.hpp:74] Creating layer pool2/3x3_s2\n-I0417 00:12:26.148535 28377 net.cpp:84] Creating Layer pool2/3x3_s2\n-I0417 00:12:26.148537 28377 net.cpp:380] pool2/3x3_s2 <- conv2/5x5_s1\n-I0417 00:12:26.148541 28377 net.cpp:338] pool2/3x3_s2 -> pool2/3x3_s2\n-I0417 00:12:26.148546 28377 net.cpp:113] Setting up pool2/3x3_s2\n-I0417 00:12:26.148552 28377 net.cpp:120] Top shape: 128 192 13 13 (4153344)\n-I0417 00:12:26.148555 28377 layer_factory.hpp:74] Creating layer conv3/3x3_s1\n-I0417 00:12:26.148560 28377 net.cpp:84] Creating Layer conv3/3x3_s1\n-I0417 00:12:26.148562 28377 net.cpp:380] conv3/3x3_s1 <- pool2/3x3_s2\n-I0417 00:12:26.148566 28377 net.cpp:338] conv3/3x3_s1 -> conv3/3x3_s1\n-I0417 00:12:26.148571 28377 net.cpp:113] Setting up conv3/3x3_s1\n-I0417 00:12:26.152534 28377 net.cpp:120] Top shape: 128 384 13 13 (8306688)\n-I0417 00:12:26.152545 28377 layer_factory.hpp:74] Creating layer conv3/relu\n-I0417 00:12:26.152549 28377 net.cpp:84] Creating Layer conv3/relu\n-I0417 00:12:26.152552 28377 net.cpp:380] conv3/relu <- conv3/3x3_s1\n-I0417 00:12:26.152556 28377 net.cpp:327] conv3/relu -> conv3/3x3_s1 (in-place)\n-I0417 00:12:26.152560 28377 net.cpp:113] Setting up conv3/relu\n-I0417 00:12:26.152565 28377 net.cpp:120] Top shape: 128 384 13 13 (8306688)\n-I0417 00:12:26.152567 28377 layer_factory.hpp:74] Creating layer conv4/3x3_s1\n-I0417 00:12:26.152573 28377 net.cpp:84] Creating Layer conv4/3x3_s1\n-I0417 00:12:26.152576 28377 net.cpp:380] conv4/3x3_s1 <- conv3/3x3_s1\n-I0417 00:12:26.152580 28377 net.cpp:338] conv4/3x3_s1 -> conv4/3x3_s1\n-I0417 00:12:26.152585 28377 net.cpp:113] Setting up conv4/3x3_s1\n-I0417 00:12:26.157611 28377 net.cpp:120] Top shape: 128 256 13 13 (5537792)\n-I0417 00:12:26.157620 28377 layer_factory.hpp:74] Creating layer conv4/relu\n-I0417 00:12:26.157625 28377 net.cpp:84] Creating Layer conv4/relu\n-I0417 00:12:26.157629 28377 net.cpp:380] conv4/relu <- conv4/3x3_s1\n-I0417 00:12:26.157632 28377 net.cpp:327] conv4/relu -> conv4/3x3_s1 (in-place)\n-I0417 00:12:26.157642 28377 net.cpp:113] Setting up conv4/relu\n-I0417 00:12:26.157646 28377 net.cpp:120] Top shape: 128 256 13 13 (5537792)\n-I0417 00:12:26.157649 28377 layer_factory.hpp:74] Creating layer conv5/3x3_s1\n-I0417 00:12:26.157655 28377 net.cpp:84] Creating Layer conv5/3x3_s1\n-I0417 00:12:26.157656 28377 net.cpp:380] conv5/3x3_s1 <- conv4/3x3_s1\n-I0417 00:12:26.157662 28377 net.cpp:338] conv5/3x3_s1 -> conv5/3x3_s1\n-I0417 00:12:26.157667 28377 net.cpp:113] Setting up conv5/3x3_s1\n-I0417 00:12:26.161183 28377 net.cpp:120] Top shape: 128 256 13 13 (5537792)\n-I0417 00:12:26.161193 28377 layer_factory.hpp:74] Creating layer conv5/relu\n-I0417 00:12:26.161200 28377 net.cpp:84] Creating Layer conv5/relu\n-I0417 00:12:26.161202 28377 net.cpp:380] conv5/relu <- conv5/3x3_s1\n-I0417 00:12:26.161206 28377 net.cpp:327] conv5/relu -> conv5/3x3_s1 (in-place)\n-I0417 00:12:26.161211 28377 net.cpp:113] Setting up conv5/relu\n-I0417 00:12:26.161214 28377 net.cpp:120] Top shape: 128 256 13 13 (5537792)\n-I0417 00:12:26.161217 28377 layer_factory.hpp:74] Creating layer pool5/3x3_s2\n-I0417 00:12:26.161221 28377 net.cpp:84] Creating Layer pool5/3x3_s2\n-I0417 00:12:26.161224 28377 net.cpp:380] pool5/3x3_s2 <- conv5/3x3_s1\n-I0417 00:12:26.161229 28377 net.cpp:338] pool5/3x3_s2 -> pool5/3x3_s2\n-I0417 00:12:26.161234 28377 net.cpp:113] Setting up pool5/3x3_s2\n-I0417 00:12:26.161240 28377 net.cpp:120] Top shape: 128 256 6 6 (1179648)\n-I0417 00:12:26.161243 28377 layer_factory.hpp:74] Creating layer fc6-conv\n-I0417 00:12:26.161247 28377 net.cpp:84] Creating Layer fc6-conv\n-I0417 00:12:26.161250 28377 net.cpp:380] fc6-conv <- pool5/3x3_s2\n-I0417 00:12:26.161255 28377 net.cpp:338] fc6-conv -> fc6-conv\n-I0417 00:12:26.161260 28377 net.cpp:113] Setting up fc6-conv\n-I0417 00:12:26.412976 28377 net.cpp:120] Top shape: 128 4096 1 1 (524288)\n-I0417 00:12:26.413005 28377 layer_factory.hpp:74] Creating layer fc7-conv\n-I0417 00:12:26.413017 28377 net.cpp:84] Creating Layer fc7-conv\n-I0417 00:12:26.413020 28377 net.cpp:380] fc7-conv <- fc6-conv\n-I0417 00:12:26.413025 28377 net.cpp:338] fc7-conv -> fc7-conv\n-I0417 00:12:26.413033 28377 net.cpp:113] Setting up fc7-conv\n-I0417 00:12:26.662575 28377 net.cpp:120] Top shape: 128 4096 1 1 (524288)\n-I0417 00:12:26.662603 28377 layer_factory.hpp:74] Creating layer fc8-conv\n-I0417 00:12:26.662616 28377 net.cpp:84] Creating Layer fc8-conv\n-I0417 00:12:26.662619 28377 net.cpp:380] fc8-conv <- fc7-conv\n-I0417 00:12:26.662626 28377 net.cpp:338] fc8-conv -> fc8-conv\n-I0417 00:12:26.662633 28377 net.cpp:113] Setting up fc8-conv\n-I0417 00:12:26.711983 28377 net.cpp:120] Top shape: 128 1000 1 1 (128000)\n-I0417 00:12:26.712009 28377 net.cpp:169] fc8-conv does not need backward computation.\n-I0417 00:12:26.712013 28377 net.cpp:169] fc7-conv does not need backward computation.\n-I0417 00:12:26.712015 28377 net.cpp:169] fc6-conv does not need backward computation.\n-I0417 00:12:26.712018 28377 net.cpp:169] pool5/3x3_s2 does not need backward computation.\n-I0417 00:12:26.712021
…
ers: \n name: \"googlenet\"\n input: \"data\"\n input_dim: 128\n@@ -1803,1442 +1803,1442 @@ layer {\n       std: 0.03\n     }\n     bias_filler \n-I0417 00:13:32.547585 28390 net.cpp:340] Input 0 -> data\n-I0417 00:13:32.547622 28390 layer_factory.hpp:74] Creating layer conv1/7x7_s2\n-I0417 00:13:32.547639 28390 net.cpp:84] Creating Layer conv1/7x7_s2\n-I0417 00:13:32.547644 28390 net.cpp:380] conv1/7x7_s2 <- data\n-I0417 00:13:32.547651 28390 net.cpp:338] conv1/7x7_s2 -> conv1/7x7_s2\n-I0417 00:13:32.547660 28390 net.cpp:113] Setting up conv1/7x7_s2\n-I0417 00:13:32.548091 28390 net.cpp:120] Top shape: 128 64 112 112 (102760448)\n-I0417 00:13:32.548106 28390 layer_factory.hpp:74] Creating layer conv1/relu_7x7\n-I0417 00:13:32.548112 28390 net.cpp:84] Creating Layer conv1/relu_7x7\n-I0417 00:13:32.548115 28390 net.cpp:380] conv1/relu_7x7 <- conv1/7x7_s2\n-I0417 00:13:32.548120 28390 net.cpp:327] conv1/relu_7x7 -> conv1/7x7_s2 (in-place)\n-I0417 00:13:32.548125 28390 net.cpp:113] Setting up conv1/relu_7x7\n-I0417 00:13:32.548135 28390 net.cpp:120] Top shape: 128 64 112 112 (102760448)\n-I0417 00:13:32.548137 28390 layer_factory.hpp:74] Creating layer pool1/3x3_s2\n-I0417 00:13:32.548142 28390 net.cpp:84] Creating Layer pool1/3x3_s2\n-I0417 00:13:32.548146 28390 net.cpp:380] pool1/3x3_s2 <- conv1/7x7_s2\n-I0417 00:13:32.548149 28390 net.cpp:338] pool1/3x3_s2 -> pool1/3x3_s2\n-I0417 00:13:32.548154 28390 net.cpp:113] Setting up pool1/3x3_s2\n-I0417 00:13:32.548164 28390 net.cpp:120] Top shape: 128 64 56 56 (25690112)\n-I0417 00:13:32.548168 28390 layer_factory.hpp:74] Creating layer conv2/3x3_reduce\n-I0417 00:13:32.548176 28390 net.cpp:84] Creating Layer conv2/3x3_reduce\n-I0417 00:13:32.548178 28390 net.cpp:380] conv2/3x3_reduce <- pool1/3x3_s2\n-I0417 00:13:32.548183 28390 net.cpp:338] conv2/3x3_reduce -> conv2/3x3_reduce\n-I0417 00:13:32.548188 28390 net.cpp:113] Setting up conv2/3x3_reduce\n-I0417 00:13:32.548238 28390 net.cpp:120] Top shape: 128 64 56 56 (25690112)\n-I0417 00:13:32.548244 28390 layer_factory.hpp:74] Creating layer conv2/relu_3x3_reduce\n-I0417 00:13:32.548249 28390 net.cpp:84] Creating Layer conv2/relu_3x3_reduce\n-I0417 00:13:32.548251 28390 net.cpp:380] conv2/relu_3x3_reduce <- conv2/3x3_reduce\n-I0417 00:13:32.548256 28390 net.cpp:327] conv2/relu_3x3_reduce -> conv2/3x3_reduce (in-place)\n-I0417 00:13:32.548260 28390 net.cpp:113] Setting up conv2/relu_3x3_reduce\n-I0417 00:13:32.548264 28390 net.cpp:120] Top shape: 128 64 56 56 (25690112)\n-I0417 00:13:32.548267 28390 layer_factory.hpp:74] Creating layer conv2/3x3\n-I0417 00:13:32.548272 28390 net.cpp:84] Creating Layer conv2/3x3\n-I0417 00:13:32.548279 28390 net.cpp:380] conv2/3x3 <- conv2/3x3_reduce\n-I0417 00:13:32.548285 28390 net.cpp:338] conv2/3x3 -> conv2/3x3\n-I0417 00:13:32.548290 28390 net.cpp:113] Setting up conv2/3x3\n-I0417 00:13:32.548998 28390 net.cpp:120] Top shape: 128 192 56 56 (77070336)\n-I0417 00:13:32.549006 28390 layer_factory.hpp:74] Creating layer conv2/relu_3x3\n-I0417 00:13:32.549011 28390 net.cpp:84] Creating Layer conv2/relu_3x3\n-I0417 00:13:32.549015 28390 net.cpp:380] conv2/relu_3x3 <- conv2/3x3\n-I0417 00:13:32.549017 28390 net.cpp:327] conv2/relu_3x3 -> conv2/3x3 (in-place)\n-I0417 00:13:32.549021 28390 net.cpp:113] Setting up conv2/relu_3x3\n-I0417 00:13:32.549026 28390 net.cpp:120] Top shape: 128 192 56 56 (77070336)\n-I0417 00:13:32.549028 28390 layer_factory.hpp:74] Creating layer pool2/3x3_s2\n-I0417 00:13:32.549033 28390 net.cpp:84] Creating Layer pool2/3x3_s2\n-I0417 00:13:32.549036 28390 net.cpp:380] pool2/3x3_s2 <- conv2/3x3\n-I0417 00:13:32.549041 28390 net.cpp:338] pool2/3x3_s2 -> pool2/3x3_s2\n-I0417 00:13:32.549046 28390 net.cpp:113] Setting up pool2/3x3_s2\n-I0417 00:13:32.549051 28390 net.cpp:120] Top shape: 128 192 28 28 (19267584)\n-I0417 00:13:32.549053 28390 layer_factory.hpp:74] Creating layer pool2/3x3_s2_pool2/3x3_s2_0_split\n-I0417 00:13:32.549058 28390 net.cpp:84] Creating Layer pool2/3x3_s2_pool2/3x3_s2_0_split\n-I0417 00:13:32.549062 28390 net.cpp:380] pool2/3x3_s2_pool2/3x3_s2_0_split <- pool2/3x3_s2\n-I0417 00:13:32.549067 28390 net.cpp:338] pool2/3x3_s2_pool2/3x3_s2_0_split -> pool2/3x3_s2_pool2/3x3_s2_0_split_0\n-I0417 00:13:32.549072 28390 net.cpp:338] pool2/3x3_s2_pool2/3x3_s2_0_split -> pool2/3x3_s2_pool2/3x3_s2_0_split_1\n-I0417 00:13:32.549077 28390 net.cpp:338] pool2/3x3_s2_pool2/3x3_s2_0_split -> pool2/3x3_s2_pool2/3x3_s2_0_split_2\n-I0417 00:13:32.549083 28390 net.cpp:338] pool2/3x3_s2_pool2/3x3_s2_0_split -> pool2/3x3_s2_pool2/3x3_s2_0_split_3\n-I0417 00:13:32.549088 28390 net.cpp:113] Setting up pool2/3x3_s2_pool2/3x3_s2_0_split\n-I0417 00:13:32.549093 28390 net.cpp:120] Top shape: 128 192 28 28 (19267584)\n-I0417 00:13:32.549098 28390 net.cpp:120] Top shape: 128 192 28 28 (19267584)\n-I0417 00:13:32.549100 28390 net.cpp:120] Top shape: 128 192 28 28 (19267584)\n-I0417 00:13:32.549104 28390 net.cpp:120] Top shape: 128 192 28 28 (19267584)\n-I0417 00:13:32.549106 28390 layer_factory.hpp:74] Creating layer inception_3a/1x1\n-I0417 00:13:32.549111 28390 net.cpp:84] Creating Layer inception_3a/1x1\n-I0417 00:13:32.549114 28390 net.cpp:380] inception_3a/1x1 <- pool2/3x3_s2_pool2/3x3_s2_0_split_0\n-I0417 00:13:32.549123 28390 net.cpp:338] inception_3a/1x1 -> inception_3a/1x1\n-I0417 00:13:32.549129 28390 net.cpp:113] Setting up inception_3a/1x1\n-I0417 00:13:32.549211 28390 net.cpp:120] Top shape: 128 64 28 28 (6422528)\n-I0417 00:13:32.549216 28390 layer_factory.hpp:74] Creating layer inception_3a/relu_1x1\n-I0417 00:13:32.549219 28390 net.cpp:84] Creating Layer inception_3a/relu_1x1\n-I0417 00:13:32.549222 28390 net.cpp:380] inception_3a/relu_1x1 <- inception_3a/1x1\n-I0417 00:13:32.549227 28390 net.cpp:327] inception_3a/relu_1x1 -> inception_3a/1x1 (in-place)\n-I0417 00:13:32.549232 28390 net.cpp:113] Setting up inception_3a/relu_1x1\n-I0417 00:13:32.549235 28390 net.cpp:120] Top shape: 128 64 28 28 (6422528)\n-I0417 00:13:32.549238 28390 layer_factory.hpp:74] Creating layer inception_3a/3x3_reduce\n-I0417 00:13:32.549242 28390 net.cpp:84] Creating Layer inception_3a/3x3_reduce\n-I0417 00:13:32.549245 28390 net.cpp:380] inception_3a/3x3_reduce <- pool2/3x3_s2_pool2/3x3_s2_0_split_1\n-I0417 00:13:32.549250 28390 net.cpp:338] inception_3a/3x3_reduce -> inception_3a/3x3_reduce\n-I0417 00:13:32.549254 28390 net.cpp:113] Setting up inception_3a/3x3_reduce\n-I0417 00:13:32.549304 28390 net.cpp:120] Top shape: 128 96 28 28 (9633792)\n-I0417 00:13:32.549311 28390 layer_factory.hpp:74] Creating layer inception_3a/relu_3x3_reduce\n-I0417 00:13:32.549315 28390 net.cpp:84] Creating Layer inception_3a/relu_3x3_reduce\n-I0417 00:13:32.549319 28390 net.cpp:380] inception_3a/relu_3x3_reduce <- inception_3a/3x3_reduce\n-I0417 00:13:32.549322 28390 net.cpp:327] inception_3a/relu_3x3_reduce -> inception_3a/3x3_reduce (in-place)\n-I0417 00:13:32.549330 28390 net.cpp:113] Setting up inception_3a/relu_3x3_reduce\n-I0417 00:13:32.549335 28390 net.cpp:120] Top shape: 128 96 28 28 (9633792)\n-I0417 00:13:32.549337 28390 layer_factory.hpp:74] Creating layer inception_3a/3x3\n-I0417 00:13:32.549342 28390 net.cpp:84] Creating Layer inception_3a/3x3\n-I0417 00:13:32.549345 28390 net.cpp:380] inception_3a/3x3 <- inception_3a/3x3_reduce\n-I0417 00:13:32.549350 28390 net.cpp:338] inception_3a/3x3 -> inception_3a/3x3\n-I0417 00:13:32.549355 28390 net.cpp:113] Setting up inception_3a/3x3\n-I0417 00:13:32.550036 28390 net.cpp:120] Top shape: 128 128 28 28 (12845056)\n-I0417 00:13:32.550043 28390 layer_factory.hpp:74] Creating layer inception_3a/relu_3x3\n-I0417 00:13:32.550048 28390 net.cpp:84] Creating Layer inception_3a/relu_3x3\n-I0417 00:13:32.550051 28390 net.cpp:380] inception_3a/relu_3x3 <- inception_3a/3x3\n-I0417 00:13:32.550055 28390 net.cpp:327] inception_3a/relu_3x3 -> inception_3a/3x3 (in-place)\n-I0417 00:13:32.550060 28390 net.cpp:113] Setting up inception_3a/relu_3x3\n-I0417 00:13:32.550063 28390 net.cpp:120] Top shape: 128 128 28 28 (12845056)\n-I0417 00:13:32.550066 28390 layer_factory.hpp:74] Creating layer inception_3a/5x5_reduce\n-I0417 00:13:32.550071 28390 net.cpp:84] Creating Layer inception_3a/5x5_reduce\n-I0417 00:13:32.550075 28390 net.cpp:380] inception_3a/5x5_reduce <- pool2/3x3_s2_pool2/3x3_s2_0_split_2\n-I0417 00:13:32.550079 28390 net.cpp:338] inception_3a/5x5_reduce -> inception_3a/5x5_reduce\n-I0417 00:13:32.550084 28390 net.cpp:113] Setting up inception_3a/5x5_reduce\n-I0417 00:13:32.550113 28390 net.cpp:120] Top shape: 128 16 28 28 (1605632)\n-I0417 00:13:32.550118 28390 layer_factory.hpp:74] Creating layer inception_3a/relu_5x5_reduce\n-I0417 00:13:32.550124 28390 net.cpp:84] Creating Layer inception_3a/relu_5x5_reduce\n-I0417 00:13:32.550127 28390 net.cpp:380] inception_3a/relu_5x5_reduce <- inception_3a/5x5_reduce\n-I0417 00:13:32.550132 28390 net.cpp:327] inception_3a/relu_5x5_reduce -> inception_3a/5x5_reduce (in-place)\n-I0417 00:13:32.550135 28390 net.cpp:113] Setting up inception_3a/relu_5x5_reduce\n-I0417 00:13:32.550139 28390 net.cpp:120] Top shape: 128 16 28 28 (1605632)\n-I0417 00:13:32.550143 28390 layer_factory.hpp:74] Creating layer inception_3a/5x5\n-I0417 00:13:32.550148 28390 net.cpp:84] Creating Layer inception_3a/5x5\n-I0417 00:13:32.550150 28390 net.cpp:380] inception_3a/5x5 <- inception_3a/5x5_reduce\n-I0417 00:13:32.550155 28390 net.cpp:338] inception_3a/5x5 -> inception_3a/5x5\n-I0417 00:13:32.550160 28390 net.cpp:113] Setting up inception_3a/5x5\n-I0417 00:13:32.550247 28390 net.cpp:120] Top shape: 128 32 28 28 (3211264)\n-I0417 00:13:32.550264 28390 layer_factory.hpp:74] Creating layer inception_3a/relu_5x5\n-I0417 00:13:32.550267 28390 net.cpp:84] Creating Layer inception_3a/relu_5x5\n-I0417 00:13:32.550271 28390 net.cpp:380] inception_3a/relu_5x5 <- inception_3a/5x5\n-I0417 00:13:32.550276 28390 net.cpp:327] inception_3a/relu_5x5 -> inception_3a/5x5 (in-place)\n-I0417 00:13:32.550279 28390 net.cpp:113] Setting up inception_3a/relu_5x5\n-I0417 00:13:32.550282 28390 net.cpp:120] Top shape: 128 32 28 28 (3211264)\n-I0417 00:13:32.550285 28390 layer_factory.hpp:74] Creating layer inception_3a/pool\n-I0417 00:13:32.550289 28390 net.cpp:84] Creating Layer inception_3a/pool\n-I0417 00:13:32.550292 28390 net.cpp:380] inception_3a/pool <- pool2/3x3_s2_pool2/3x3_s2_0_split_3\n-I0417 00:13:32.550297 28390 net.cpp:338] inception_3a/pool -> inception_3a/pool\n-I0417 00:13:32.550302 28390 net.cpp:113] Setting up inception_3a/pool\n-I0417 00:13:32.550307 28390 net.cpp:120] Top shape: 128 192 28 28 (19267584)\n-I0417 00:13:32.550309 28390 layer_factory.hpp:74] Creating layer inception_3a/pool_proj\n-I0417 00:13:32.550314 28390 net.cpp:84] Creating Layer inception_3a/pool_proj\n-I0417 00:13:32.550318 28390 net.cpp:380] inception_3a/pool_proj <- inception_3a/pool\n-I0417 00:13:32.550323 28390 net.cpp:338] inception_3a/pool_proj -> inception_3a/pool_proj\n-I0417 00:13:32.550328 28390 net.cpp:113] Setting up inception_3a/pool_proj\n-I0417 00:13:32.550375 28390 net.cpp:120] Top shape: 128 32 28 28 (3211264)\n-I0417 00:13:32.550385 28390 layer_factory.hpp:74] Creating layer inception_3a/relu_pool_proj\n-I0417 00:13:32.550390 28390 net.cpp:84] Creating Layer inception_3a/relu_pool_proj\n-I0417 00:13:32.550393 28390 net.cpp:380] inception_3a/relu_pool_proj <- inception_3a/pool_proj\n-I0417 00:13:32.550398 28390 net.cpp:327] inception_3a/relu_pool_proj -> inception_3a/pool_proj (in-place)\n-I0417 00:13:32.550402 28390 net.cpp:113] Setting up inception_3a/relu_pool_proj\n-I0417 00:13:32.550406 28390 net.cpp:120] Top shape: 128 32 28 28 (3211264)\n-I0417 00:13:32.550408 28390 layer_factory.hpp:74] Creating layer inception_3a/output\n-I0417 00:13:32.550413 28390 net.cpp:84] Creating Layer inception_3a/output\n-I0417 00:13:32.550415 28390 net.cpp:380] inception_3a/output <- inception_3a/1x1\n-I0417 00:13:32.550420 28390 net.cpp:380] inception_3a/output <- inception_3a/3x3\n-I0417 00:13:32.550422 28390 net.cpp:380] inception_3a/output <- inception_3a/5x5\n-I0417 00:13:32.550426 28390 net.cpp:380] inception_3a/output <- inception_3a/pool_proj\n-I0417 00:13:32.550429 28390 net.cpp:338] inception_3a/output -> inception_3a/output\n-I0417 00:13:32.550436 28390 net.cpp:113] Setting up inception_3a/output\n-I0417 00:13:32.550441 28390 net.cpp:120] Top shape: 128 256 28 28 (25690112)\n-I0417 00:13:32.550443 28390 layer_factory.hpp:74] Creating layer inception_3a/output_inception_3a/output_0_split\n-I0417 00:13:32.550447 28390 net.cpp:84] Creating Layer inception_3a/output_inception_3a/output_0_split\n-I0417 00:13:32.550451 28390 net.cpp:380] inception_3a/output_inception_3a/output_0_split <- inception_3a/output\n-I0417 00:13:32.550454 28390 net.cpp:338] inception_3a/output_inception_3a/output_0_split -> inception_3a/output_inception_3a/output_0_split_0\n-I0417 00:13:32.550459 28390 net.cpp:338] inception_3a/output_inception_3a/output_0_split -> inception_3a/output_inception_3a/output_0_split_1\n-I0417 00:13:32.550464 28390 net.cpp:338] inception_3a/output_inception_3a/output_0_split -> inception_3a/output_inception_3a/output_0_split_2\n-I0417 00:13:32.550468 28390 net.cpp:338] inception_3a/output_inception_3a/output_0_split -> inception_3a/output_inception_3a/output_0_split_3\n-I0417 00:13:32.550472 28390 net.cpp:113] Setting up inception_3a/output_inception_3a/output_0_split\n-I0417 00:13:32.550477 28390 net.cpp:120] Top shape: 128 256 28 28 (25690112)\n-I0417 00:13:32.550480 28390 net.cpp:120] Top shape: 128 256 28 28 (25690112)\n-I0417 00:13:32.550484 28390 net.cpp:120] Top shape: 128 256 28 28 (25690112)\n-I0417 00:13:32.550487 28390 net.cpp:120] Top shape: 128 256 28 28 (25690112)\n-I0417 00:13:32.550490 28390 layer_factory.hpp:74] Creating layer inception_3b/1x1\n-I0417 00:13:32.550495 28390 net.cpp:84] Creating Layer inception_3b/1x1\n-I0417 00:13:32.550498 28390 net.cpp:380] inception_3b/1x1 <- inception_3a/output_inception_3a/output_0_split_0\n-I0417 00:13:32.550503 28390 net.cpp:338] inception_3b/1x1 -> inception_3b/1x1\n-I0417 00:13:32.550508 28390 net.cpp:113] Setting up inception_3b/1x1\n-I0417 00:13:32.550717 28390 net.cpp:120] Top shape: 128 128 28 28 (12845056)\n-I0417 00:13:32.550724 28390 layer_factory.hpp:74] Creating layer inception_3b/relu_1x1\n-I0417 00:13:32.550729 28390 net.cpp:84] Creating Layer inception_3b/relu_1x1\n-I0417 00:13:32.550731 28390 net.cpp:380] inception_3b/relu_1x1 <- inception_3b/1x1\n-I0417 00:13:32.550736 28390 net.cpp:327] inception_3b/relu_1x1 -> inception_3b/1x1 (in-place)\n-I0417 00:13:32.550740 28390 net.cpp:113] Setting up inception_3b/relu_1x1\n-I0417 00:13:32.550745 28390 net.cpp:120] Top shape: 128 128 28 28 (12845056)\n-I0417 00:13:32.550747 28390 layer_factory.hpp:74] Creating layer inception_3b/3x3_reduce\n-I0417 00:13:32.550751 28390 net.cpp:84] Creating Layer inception_3b/3x3_reduce\n-I0417 00:13:32.550755 28390 net.cpp:380] inception_3b/3x3_reduce <- inception_3a/output_inception_3a/output_0_split_1\n-I0417 00:13:32.550760 28390 net.cpp:338] inception_3b/3x3_reduce -> inception_3b/3x3_reduce\n-I0417 00:13:32.550765 28390 net.cpp:113] Setting up inception_3b/3x3_reduce\n-I0417 00:13:32.550971 28390 net.cpp:120] Top shape: 128 128 28 28 (12845056)\n-I0417 00:13:32.550979 28390 layer_factory.hpp:74] Creating layer inception_3b/relu_3x3_reduce\n-I0417 00:13:32.550983 28390 net.cpp:84] Creating Layer inception_3b/relu_3x3_reduce\n-I0417 00:13:32.550987 28390 net.cpp:380] inception_3b/relu_3x3_reduce <- inception_3b/3x3_reduce\n-I0417 00:13:32.550990 28390 net.cpp:327] inception_3b/relu_3x3_reduce -> inception_3b/3x3_reduce (in-place)\n-I0417 00:13:32.550994 28390 net.cpp:113] Setting up inception_3b/relu_3x3_reduce\n-I0417 00:13:32.550997 28390 net.cpp:120] Top shape: 128 128 28 28 (12845056)\n-I0417 00:13:32.551000 28390 layer_factory.hpp:74] Creating layer inception_3b/3x3\n-I0417 00:13:32.551007 28390 net.cpp:84] Creating Layer inception_3b/3x3\n-I0417 00:13:32.551009 28390 net.cpp:380] inception_3b/3x3 <- inception_3b/3x3_reduce\n-I0417 00:13:32.551014 28390 net.cpp:338] inception_3b/3x3 -> inception_3b/3x3\n-I0417 00:13:32.551018 28390 net.cpp:113] Setting up inception_3b/3x3\n-I0417 00:13:32.552386 28390 net.cpp:120] Top shape: 128 192 28 28 (19267584)\n-I0417 00:13:32.552394 28390 layer_factory.hpp:74] Creating layer inception_3b/relu_3x3\n-I0417 00:13:32.552398 28390 net.cpp:84] Creating Layer inception_3b/relu_3x3\n-I0417 00:13:32.552402 28390 net.cpp:380] inception_3b/relu_3x3 <- inception_3b/3x3\n-I0417 00:13:32.552405 28390 net.cpp:327] inception_3b/relu_3x3 -> inception_3b/3x3 (in-place)\n-I0417 00:13:32.552409 28390 net.cpp:113] Setting up inception_3b/relu_3x3\n-I0417 00:13:32.552413 28390 net.cpp:120] Top shape: 128 192 28 28 (19267584)\n-I0417 00:13:32.552417 28390 layer_factory.hpp:74] Creating layer inception_3b/5x5_reduce\n-I0417 00:13:32.552423 28390 net.cpp:84] Creating Layer inception_3b/5x5_reduce\n-I0417 00:13:32.552425 28390 net.cpp:380] inception_3b/5x5_reduce <- inception_3a/output_inception_3a/output_0_split_2\n-I0417 00:13:32.552431 28390 net.cpp:338] inception_3b/5x5_reduce -> inception_3b/5x5_reduce\n-I0417 00:13:32.552436 28390 net.cpp:113] Setting up inception_3b/5x5_reduce\n-I0417 00:13:32.552495 28390 net.cpp:120] Top shape: 128 32 28 28 (3211264)\n-I0417 00:13:32.552500 28390 layer_factory.hpp:74] Creating layer inception_3b/relu_5x5_reduce\n-I0417 00:13:32.552503 28390 net.cpp:84] Creating Layer inception_3b/relu_5x5_reduce\n-I0417 00:13:32.552506 28390 net.cpp:380] inception_3b/relu_5x5_reduce <- inception_3b/5x5_reduce\n-I0417 00:13:32.552510 28390 net.cpp:327] inception_3b/relu_5x5_reduce -> inception_3b/5x5_reduce (in-place)\n-I0417 00:13:32.552513 28390 net.cpp:113] Setting up inception_3b/relu_5x5_reduce\n-I0417 00:13:32.552517 28390 net.cpp:120] Top shape: 128 32 28 28 (3211264)\n-I0417 00:13:32.552520 28390 layer_factory.hpp:74] Creating layer inception_3b/5x5\n-I0417 00:13:32.552526 28390 net.cpp:84] Creating Layer inception_3b/5x5\n-I0417 00:13:32.552531 28390 net.cpp:380] inception_3b/5x5 <- inception_3b/5x5_reduce\n-I0417 00:13:32.552536 28390 net.cpp:338] inception_3b/5x5 -> inception_3b/5x5\n-I0417 00:13:32.552541 28390 net.cpp:113] Setting up inception_3b/5x5\n-I0417 00:13:32.553007 28390 net.cpp:120] Top shape: 128 96 28 28 (9633792)\n-I0417 00:13:32.553014 28390 layer_factory.hpp:74] Creating layer inception_3b/relu_5x5\n-I0417 00:13:32.553017 28390 net.cpp:84] Creating Layer inception_3b/relu_5x5\n-I0417 00:13:32.553020 28390 net.cpp:380] inception_3b/relu_5x5 <- inception_3b/5x5\n-I0417 00:13:32.553025 28390 net.cpp:327] inception_3b/relu_5x5 -> inception_3b/5x5 (in-place)\n-I0417 00:13:32.553028 28390 net.cpp:113] Setting up inception_3b/relu_5x5\n-I0417 00:13:32.553031 28390 net.cpp:120] Top shape: 128 96 28 28 (9633792)\n-I0417 00:13:32.553035 28390 layer_factory.hpp:74] Creating layer inception_3b/pool\n-I0417 00:13:32.553040 28390 net.cpp:84] Creating Layer inception_3b/pool\n-I0417 00:13:32.553042 28390 net.cpp:380] inception_3b/pool <- inception_3a/output_inception_3a/output_0_split_3\n-I0417 00:13:32.553047 28390 net.cpp:338] inception_3b/pool -> inception_3b/pool\n-I0417 00:13:32.553051 28390 net.cpp:113] Setting up inception_3b/pool\n-I0417 00:13:32.553056 28390 net.cpp:120] Top shape: 128 256 28 28 (25690112)\n-I0417 00:13:32.553059 28390 layer_factory.hpp:74] Creating layer inception_3b/pool_proj\n-I0417 00:13:32.553068 28390 net.cpp:84] Creating Layer inception_3b/pool_proj\n-I0417 00:13:32.553071 28390 net.cpp:380] inception_3b/pool_proj <- inception_3b/pool\n-I0417 00:13:32.553076 28390 net.cpp:338] inception_3b/pool_proj -> inception_3b/pool_proj\n-I0417 00:13:32.553081 28390 net.cpp:113] Setting up inception_3b/pool_proj\n-I0417 00:13:32.553189 28390 net.cpp:120] Top shape: 128 64 28 28 (6422528)\n-I0417 00:13:32.553194 28390 layer_factory.hpp:74] Creating layer inception_3b/relu_pool_proj\n-I0417 00:13:32.553199 28390 net.cpp:84] Creating Layer inception_3b/relu_pool_proj\n-I0417 00:13:32.553201 28390 net.cpp:380] inception_3b/relu_pool_proj <- inception_3b/pool_proj\n-I0417 00:13:32.553205 28390 net.cpp:327] inception_3b/relu_pool_proj -> inception_3b/pool_proj (in-place)\n-I0417 00:13:32.553210 28390 net.cpp:113] Setting up inception_3b/relu_pool_proj\n-I0417 00:13:32.553213 28390 net.cpp:120] Top shape: 128 64 28 28 (6422528)\n-I0417 00:13:32.553216 28390 layer_factory.hpp:74] Creating layer inception_3b/output\n-I0417 00:13:32.553220 28390 net.cpp:84] Creating Layer inception_3b/output\n-I0417 00:13:32.553223 28390 net.cpp:380] inception_3b/output <- inception_3b/1x1\n-I0417 00:13:32.553226 28390 net.cpp:380] inception_3b/output <- inception_3b/3x3\n-I0417 00:13:32.553230 28390 net.cpp:380] inception_3b/output <- inception_3b/5x5\n-I0417 00:13:32.553233 28390 net.cpp:380] inception_3b/output <- inception_3b/pool_proj\n-I0417 00:13:32.553237 28390 net.cpp:338] inception_3b/output -> inception_3b/output\n-I0417 00:13:32.553242 28390 net.cpp:113] Setting up inception_3b/output\n-I0417 00:13:32.553246 28390 net.cpp:120] Top shape: 128 480 28 28 (48168960)\n-I0417 00:13:32.553249 28390 layer_factory.hpp:74] Creating layer pool3/3x3_s2\n-I0417 00:13:32.553253 28390 net.cpp:84] Creating Layer pool3/3x3_s2\n-I0417 00:13:32.553256 28390 net.cpp:380] pool3/3x3_s2 <- inception_3b/output\n-I0417 00:13:32.553261 28390 net.cpp:338] pool3/3x3_s2 -> pool3/3x3_s2\n-I0417 00:13:32.553264 28390 net.cpp:113] Setting up pool3/3x3_s2\n-I0417 00:13:32.553269 28390 net.cpp:120] Top shape: 128 480 14 14 (12042240)\n-I0417 00:13:32.553272 28390 layer_factory.hpp:74] Creating layer pool3/3x3_s2_pool3/3x3_s2_0_split\n-I0417 00:13:32.553277 28390 net.cpp:84] Creating Layer pool3/3x3_s2_pool3/3x3_s2_0_split\n-I0417 00:13:32.553280 28390 net.cpp:380] pool3/3x3_s2_pool3/3x3_s2_0_split <- pool3/3x3_s2\n-I0417 00:13:32.553284 28390 net.cpp:338] pool3/3x3_s2_pool3/3x3_s2_0_split -> pool3/3x3_s2_pool3/3x3_s2_0_split_0\n-I0417 00:13:32.553289 28390 net.cpp:338] pool3/3x3_s2_pool3/3x3_s2_0_split -> pool3/3x3_s2_pool3/3x3_s2_0_split_1\n-I0417 00:13:32.553297 28390 net.cpp:338] pool3/3x3_s2_pool3/3x3_s2_0_split -> pool3/3x3_s2_pool3/3x3_s2_0_split_2\n-I0417 00:13:32.553302 28390 net.cpp:338] pool3/3x3_s2_pool3/3x3_s2_0_split -> pool3/3x3_s2_pool3/3x3_s2_0_split_3\n-I0417 00:13:32.553305 28390 net.cpp:113] Setting up pool3/3x3_s2_pool3/3x3_s2_0_split\n-I0417 00:13:32.553310 28390 net.cpp:120] Top shape: 128 480 14 14 (12042240)\n-I0417 00:13:32.553313 28390 net.cpp:120] Top shape: 128 480 14 14 (12042240)\n-I0417 00:13:32.553316 28390 net.cpp:120] Top shape: 128 480 14 14 (12042240)\n-I0417 00:13:32.553320 28390 net.cpp:120] Top shape: 128 480 14 14 (12042240)\n-I0417 00:13:32.553323 28390 layer_factory.hpp:74] Creating layer inception_4a/1x1\n-I0417 00:13:32.553328 28390 net.cpp:84] Creating Layer inception_4a/1x1\n-I0417 00:13:32.553331 28390 net.cpp:380] inception_4a/1x1 <- pool3/3x3_s2_pool3/3x3_s2_0_split_0\n-I0417 00:13:32.553336 28390 net.cpp:338] inception_4a/1x1 -> inception_4a/1x1\n-I0417 00:13:32.553340 28390 net.cpp:113] Setting up inception_4a/1x1\n-I0417 00:13:32.553899 28390 net.cpp:120] Top shape: 128 192 14 14 (4816896)\n-I0417 00:13:32.553905 28390 layer_factory.hpp:74] Creating layer inception_4a/relu_1x1\n-I0417 00:13:32.553911 2839", "changed_files": [{"status": "M", "path": "caffe/output_alexnet.log"}, {"status": "M", "path": "caffe/output_googlenet.log"}, {"status": "M", "path": "caffe/output_overfeat.log"}, {"status": "M", "path": "caffe/output_vgg_a.log"}], "n_files_changed": 4}
{"r
…
